models/DDQN_CartPole-v0.pt (torch, 3599 bytes, 4 tensors)

0.weight f8 [32, 4]
0	0x3fd27085231b2492	0.28811767986605574
1	0xbfcb912fcf29add6	-0.2153682481324341
2	0xbfe2d6ff5603b5f5	-0.588744800564824
3	0x3f952be3e91e8168	0.020675240615334017
4	0xbfd27c7d52f7149b	-0.2888482389647124
5	0x3fdc687d8258ab92	0.4438775799669027
6	0xbfcc269942012e15	-0.21992793772584265
7	0x3fd788b03b3e73c7	0.36771779809515376
8	0xbfdaf1b6a91a3df0	-0.42100302232662923
9	0x3fb3803c8ac4b912	0.07617548358823381
10	0xbfb99360495461f1	-0.09990503111146844
11	0xbfdc3159f5e9e8b6	-0.4405121709347769
12	0xbfd042b7f0711e71	-0.2540721748414177
13	0x3fdd7292fa474674	0.4601180500149902
14	0xbfe215f7d4fc507f	-0.565181652057177
15	0x3fde05b6687243ce	0.4690986652358874
16	0x3fe4748fed0a7265	0.6392287854865343
17	0xbfea85179b269f47	-0.8287466078081501
18	0xc00c248b6177360f	-3.5178439726357804
19	0xbff45ebe92cdbf58	-1.27313096375652
20	0xbfd2be43133a9174	-0.2928626716404985
21	0x3fc49c97c17441ad	0.16102883287432004
22	0xbfe21545a57bf9e2	-0.5650966865649105
23	0x3fcf77112431f66c	0.24582113520948512
24	0x3fb2c8466b0c6d10	0.07336845506181455
25	0x3fd9a3b5fab23bf9	0.4006171177106235
26	0xbfe5de66dceaef4d	-0.683398658256445
27	0x3fbc2d03504e1fd8	0.11006184301925204
28	0x3fd7d4d2eb502cc4	0.3723647401790908
29	0xbfb30b83ce23a917	-0.07439445288369871
30	0xbfdfda194021657d	-0.49768668425311785
31	0x3fcc9f86cfecd13c	0.22361836578932948
32	0xbfe07ac26c4195c2	-0.5149852861765611
33	0x3fdec9c6430a82c7	0.48106533572176285
34	0x3fa4c004eef5eb9b	0.040527490777967766
35	0xbfc8d72689e8a08e	-0.19406587346862064
36	0x3fc1ca2f81915508	0.1389827139525226
37	0xbfd7ab13a757a892	-0.3698166975215226
38	0x3f73b26625b093a3	0.004808806431388843
39	0xbfe07de0115b138c	-0.5153656329135727
40	0x3f93513e7c6cf315	0.018864609093031854
41	0x3ff3533c6878e687	1.2078212815235092
42	0x40125d05d5eef0c2	4.590842573841828
43	0x3ff467614a52e648	1.2752392676615205
44	0x3fb0d2a6a756f0ca	0.0657142790359472
45	0x3fc98577d82d0306	0.1993856244607956
46	0xbfc1ccd064635df3	-0.1390629282166028
47	0xbfccd1cc7a095855	-0.22515254935086895
48	0xbfd6bb51496e7da1	-0.35518295451216814
49	0x3fc2ed3c55ee5674	0.14786485858774123
50	0xbfb1eb41ac7947c8	-0.06999597988877249
51	0xbfd45f225fc7ad86	-0.31830653527750774
52	0xbfc957252508620b	-0.19797195728530456
53	0xbfcc21e55e852406	-0.2197844230197747
54	0xbff09a2569ed8d20	-1.0376333368120143
55	0xbf92654950674da6	-0.017964501888696603
56	0x3fc7521452d864a6	0.18219236416988344
57	0xbfee71417479ba62	-0.9513251566803087
58	0xc015746a11422be5	-5.363685865081583
59	0xbff9fbddccda36a6	-1.6239908220335706
60	0x3fea2f7dadf09d48	0.8182972333205862
61	0xbfe7184ca6390abe	-0.7217162367381531
62	0xbfe6867938e468b8	-0.7039152251411656
63	0x3fa6cabf6aff5971	0.04451559239503212
64	0xbfd3c01ee65cc3f5	-0.308601117099044
65	0x3fccca52b121ddf7	0.22492440842664482
66	0x3fc0ea88a2c13ba9	0.13215740153324632
67	0xbfc183c79cd7545e	-0.1368340984178386
68	0x3fbaf6934c6d6705	0.10532494178678682
69	0xbfdc27a75b2aca38	-0.43992027190248306
70	0xbfe8191e9db34752	-0.753066356666958
71	0xbfc88f16a9180230	-0.19186671501667396
72	0x3fe92a19896ed67e	0.7863891300427921
73	0xbfe06310e449034a	-0.5120930155463637
74	0xbff4a0bec95afde6	-1.289244448227572
75	0xbfaa1a2bbf682b02	-0.05098091804037176
76	0xbffbc9794fa2dbbf	-1.7366879568851201
77	0xbfeea0ef8c4e20f6	-0.9571454754195929
78	0xbfe6b7a58b82f8be	-0.7099178051792234
79	0xbfe14f49cea49af8	-0.5409287487026111
80	0xbfdb1fbcfed33f8b	-0.4238121498610716
81	0x3fa44b33676418f4	0.03963623654458273
82	0xbfd1f565e652aa5b	-0.2806029080626666
83	0xbfd07b036332ffd5	-0.2575081318609567
84	0xbfc0fe07d3d81502	-0.13275239795635946
85	0xbfbee8316146255f	-0.12073048233846383
86	0xbfe9f69fe2eb4711	-0.8113555366528279
87	0x3f603d2056640e7d	0.0019822722998713003
88	0xbfdc20031d72d789	-0.4394538676818845
89	0x3fdc7748cedc811b	0.4447805423860857
90	0xbfe5eb68373554d7	-0.6849862173354734
91	0x3f9a3a4db2d0b206	0.02561303523923366
92	0x3fd15673fbda2ac6	0.27090167612975014
93	0xbf954185e6ffbf17	-0.020757763122616426
94	0xbfe8d6698cdf83cd	-0.7761733771732168
95	0x3fcbd30bd287f485	0.21737811832273138
96	0x3fc432c9aa292132	0.15779991921068298
97	0x3fb0d74059f63df7	0.06578447529158625
98	0xbfd38737e6cffbb3	-0.3051280740764312
99	0xbfda95f9f66eb62d	-0.4154038340155662
100	0xbfd7b58919afe340	-0.370455050549527
101	0xbfc15510a28bb336	-0.13540847718049925
102	0xbfd9f4b92960f42b	-0.40556172409907515
103	0xbfc56bda185a9110	-0.16735387982510774
104	0x3fda0a1961354fca	0.406866402559214
105	0xbfb5c38ac7c8551f	-0.08501498582366594
106	0xbfe75b0c529fc6e2	-0.7298642743828305
107	0xbf7e9ddd2b2bdba6	-0.007474769535057135
108	0x3fe4be9c7358ca5d	0.6482679608219076
109	0xbff0064ebf0d2a31	-1.0015399420687
110	0xbffbe35e959cf23c	-1.7430101246128649
111	0xbfdc9a8091178721	-0.44693006676799213
112	0x3fe6c18114e3525b	0.7111211212127942
113	0xbfe5a282d3f8378a	-0.6760877742797089
114	0xbff08ee633b0ac96	-1.0348875064035261
115	0xbfcf305943e84b61	-0.2436629849986174
116	0xbfb77fa95470fd78	-0.09179170905644252
117	0xbfd5b69932b59dd2	-0.3392699237069482
118	0xbfd457bc3a82c847	-0.3178549357791138
119	0xbfe1a7bce0367c9e	-0.5517258052021992
120	0xbfd2c8250880fdb4	-0.293465860657274
121	0x3fc25586fc2a5d85	0.14323508560913126
122	0x3fd068a1d8087906	0.25638624283773515
123	0xbfca38772cb94216	-0.2048481911065358
124	0xbfd549819ca92745	-0.3326114683046522
125	0x3fbba4925f315216	0.10797991584815522
126	0xbfef6b40722fe509	-0.9818422537056516
127	0x3fbc14ad2c0a6043	0.1096904976387814

0.bias f8 [32]
0	0x3ff0217ace160f8f	1.0081737566224296
1	0x3fec27c7a4d24254	0.8798559397856232
2	0x3ff07837a8f21e17	1.0293499564594464
3	0x3ff1950f7bc8d1fa	1.0988917193727716
4	0x3ff20483b882cecf	1.1261021811923688
5	0x3fef5879d8a0339c	0.9795502882931149
6	0x3feda1919cbeae22	0.9259727536604638
7	0x3fe4b9c7d9c55cee	0.6476783040369847
8	0x3fe591ba903af62f	0.6740391556738298
9	0x3fe800789ae4e5e4	0.7500575089717896
10	0xbff84841d824f363	-1.5176409190309748
11	0x3fec3c82858eeee0	0.8823864563523465
12	0x3fe8103d648cefec	0.7519823993566184
13	0x3fedc26c138b6bb9	0.9299831754427635
14	0xbff7231e633f12a5	-1.4460739018260622
15	0x3fdfd990d370af2e	0.49765415810064695
16	0x3fe43070a31abd00	0.6309130845674247
17	0x3fe9554de21da62b	0.7916631141972109
18	0x3fe86c53378e75ee	0.7632232747161518
19	0x3f8fef4eda234fe5	0.015593162567178307
20	0x3ff0e7bfa4161bd6	1.056579247438767
21	0x3fea040688bd7362	0.8129913969711249
22	0x3fe763251b566059	0.7308526548322433
23	0x3fe511bbe8869621	0.6584147969740038
24	0x3ff1b2085c8b8e8a	1.1059650054020573
25	0x3ff22709710ebd31	1.1345304886161325
26	0x3fe3bfc8e58bd00c	0.617161224682151
27	0xbfbdae680dea0d96	-0.11594248141960004
28	0xbfe0eb0a52445da3	-0.5286914450434107
29	0x3fea08b3c3081507	0.8135622796259278
30	0x3fe27d0721861f65	0.577762189365768
31	0x3fe6d7170a78d9a0	0.7137561039478904

2.weight f8 [2, 32]
0	0x3fe05c0653aa7bdd	0.5112334856129298
1	0x3fe3c4fbd60bf57f	0.6177958660697839
2	0x3fe286c2da5d1ca2	0.5789503350178118
3	0x3fe3032c9f820aee	0.5941374888792248
4	0xbff7875a521a9a56	-1.4705451209244038
5	0x3fe5e01f111ec7fa	0.6836085638408342
6	0x3fe02cdf81fef110	0.5054776705724482
7	0x3fd8a6942ca035d0	0.38516716344824165
8	0x3fd9242f009b078f	0.3928334718622119
9	0x3fe3eb9ddd7adaf0	0.6225117994098053
10	0xc00223a3e988b6a1	-2.267402481541311
11	0x3fdc97162859f8c7	0.44672159138270867
12	0x3fd98fbf0719c718	0.3993985719053952
13	0x3fd83af90ecd8472	0.37859941907488015
14	0xc0023759e666df6d	-2.277026939405849
15	0x3fda8feeda3003ac	0.4150349741685726
16	0x3fe2abe5d3b72ff6	0.5834836134977184
17	0x3fe897496c83a678	0.7684676284236067
18	0x3fe05a2df901065f	0.5110082496032183
19	0xbff65385f7a31c18	-1.3953914330793449
20	0x3fe643d8c44630de	0.695782073352827
21	0x3fe2a9dd6802a5e8	0.5832354575588257
22	0x3fe1d32e77539bf6	0.5570289927098873
23	0x3fdda75baa49de87	0.4633397257780207
24	0x3fde4a6dc67095dc	0.4732927739990751
25	0x3fe75f57dde28267	0.7303885778129143
26	0x3fb5052b1a8a341e	0.08211011312433
27	0x3fcfcc77fd2ecf70	0.24842738974040968
28	0xbfb0cb01560caf41	-0.06559761381930419
29	0x3fd785faa0511d5c	0.36755242973273083
30	0x3fd2967943aaae99	0.29043418510512137
31	0x3fea1844f9ae1a06	0.8154625774921562
32	0x3fe2f6649afbc136	0.59257726926993
33	0x3fd4cc7a5db0c3d9	0.32498034619771726
34	0x3fe4b9edc988bdd5	0.6476963936055947
35	0x3fd91200a93c598b	0.3917237904255663
36	0xc0015a0272d405fb	-2.1689499827341456
37	0x3fdcfef1039a2d5a	0.4530603919199244
38	0x3fdf900657e6c945	0.49316557487613394
39	0x3fda27429b6478a3	0.408646251440482
40	0x3fde3645c76c061f	0.47206253504563905
41	0x3feb10c982099afc	0.8457992114825568
42	0xbff572006fb46554	-1.3403324473823277
43	0x3fdee78daa9e27e8	0.48288289701360876
44	0x3fe5154c26561b5e	0.6588497875935493
45	0x3fe2a68ae8841fc9	0.5828299084978364
46	0xc00a028f4712b1a9	-3.251249842889781
47	0x3fc45d7f214663b4	0.15910328984025812
48	0x3fe1f9dc09d7283d	0.5617504303165856
49	0x3fe9871d0d63fd6f	0.7977433454069977
50	0x3fe5784f46ff5fd6	0.6709362398787515
51	0xbff39bd969a0cc1b	-1.22554913769705
52	0x3fdec85aed7c14df	0.4809787100969753
53	0x3fe8ff131a017fda	0.7811370380331895
54	0x3fe52a3174d4ff8d	0.6614005357623555
55	0x3fdedad012cd8969	0.48210527263849784
56	0x3fe37c4cef59e076	0.6089234042001539
57	0x3fe34d9206b5d33b	0.6032190447864204
58	0x3fdec7fc1ad8e6e2	0.480956102579155
59	0x3fe36b5761c0003f	0.606853190343834
60	0x3fe6ffa249964a72	0.7187053143737343
61	0x3fe0ddb93530d674	0.5270658530123016
62	0x3fd895270044b805	0.3841035368558326
63	0x3feb742434e6f977	0.8579274209258035

2.bias f8 [2]
0	0x3fd771b20baeb798	0.36631442204349574
1	0x3fdd12e140b5d873	0.4542773372589927
