models/DDQN_CartPole-v1.pt (torch, 3599 bytes, 4 tensors)

0.weight f8 [32, 4]
00000000: 2e5d 1103 2d24 dd3f 0a22 588e f83b d13f
00000010: a0c4 2538 1a6b debf e4ac 2075 c59e b83f
00000020: 6b1a 5ebd 0b2d e73f fc4e e0f6 8105 cf3f
00000030: faf2 288d 2cac f2bf d8a5 dd55 0fb7 efbf
00000040: 1392 942d 69bd e13f a877 3943 11e3 d13f
00000050: b823 c2c8 d2ba cb3f 8ced 1ecc ce9f a23f
00000060: 0c4d 39b5 9eee d53f fa69 39fd fd9f dabf
00000070: 52ff 1706 65be c23f 10ff 375a 87a2 a5bf
00000080: 156c bcb1 2bc8 e13f e312 6739 8720 d0bf
00000090: 73b1 2a02 9ebd cebf ddbe 8429 687b c93f
000000a0: 2e76 8895 165e bdbf 9d67 a276 ee30 ccbf
000000b0: e96f a3b1 f6cf e7bf 88b4 ae38 25a9 c2bf
000000c0: 785c b462 ff9d adbf e9ae c808 19a4 bdbf
000000d0: 0080 50ff 0eee e3bf 3272 c8cb 26d7 d33f
000000e0: da23 f955 bd1f e63f ae66 65be f2fb ca3f
000000f0: e5f0 d579 e66f e1bf 434e 1412 b157 a33f
00000100: 3d69 ae3c 054c e23f 1d84 122c 62ff a13f
00000110: c7ed 2b6b 0fe9 a83f 756c e067 7969 d63f
00000120: 0ec5 5765 4e15 e03f 5f84 7057 d679 bb3f
00000130: 4ac2 07a4 fccb a6bf 1804 857b 12a1 9cbf
00000140: f485 a6c6 52a1 d33f 53e4 e29b 8b56 c43f
00000150: a101 7237 65de c33f e90d 62a1 a04f b23f
00000160: ffce 131a 7ee8 e53f 54f0 36b4 02ea d1bf
00000170: baca ecff e2a7 923f d9da adac 69c6 d2bf
00000180: 362f 465f 91e3 d93f d5d5 825d 79d7 c4bf
00000190: 863b 5942 374b b63f d427 54c5 186b d1bf
000001a0: e66e 8dfa a655 e73f 6ffd 20db b4cf d2bf
000001b0: 8f73 dfe0 b61b dabf 0553 5caa 4db5 a33f
000001c0: bf47 0181 2f1c f2bf cca6 5298 fe86 debf
000001d0: c585 14b7 d555 f93f afdf 26a7 d3e1 f33f
000001e0: 2e36 1801 a505 c33f ab85 13f5 5c42 d93f
000001f0: f8e7 a0d8 aee8 d7bf 1481 ae5a f30f ecbf
00000200: f3a4 1da7 edf7 e53f fb7c 5a52 60b0 d03f
00000210: b450 a3e0 1d4b e5bf 5f0e bb6a bf7c 98bf
00000220: 37c6 4f7d 3b0b ebbf a4e1 4c2a 9e3c d7bf
00000230: de0e 8631 7496 f63f 92b8 3c92 eb7b f33f
00000240: 3ab0 276d 541e bbbf 24b2 27c4 9310 d33f
00000250: a969 4c9f 1156 cabf 7a9a 4cfb 566d 853f
00000260: 7c96 afe4 0408 da3f 1bb4 ed78 4dba 9fbf
00000270: 9f58 291d 9e6e b1bf a0a4 3a1f 3dda c83f
00000280: 326a b18a 836d df3f 9987 6616 b09e 90bf
00000290: 2d57 3819 dc00 d9bf b7d0 f111 4625 babf
000002a0: 5c24 f949 3041 da3f f929 9d60 4473 d7bf
000002b0: 5f4a acb4 3b26 cd3f e9a4 af0d f268 b0bf
000002c0: 8a98 156d 8f42 c9bf befe 6277 d74e d33f
000002d0: 89dc 4a8f bc9f e0bf 3699 faff 9c7a ad3f
000002e0: 71a4 51f1 72ee e2bf 13b1 8521 8d03 eb3f
000002f0: 35dd ee33 d41a b83f d643 b858 8fd1 60bf
00000300: c6c4 5148 0baa 98bf 3a6f b555 8b57 c6bf
00000310: bc39 a586 cddc dabf d8d6 df0a 39c6 bf3f
00000320: a54e dcf4 d6b5 dd3f b0b6 f21d 5eea ba3f
00000330: 1721 6958 bbc8 e7bf 6f74 cd71 c579 b53f
00000340: 93b0 2ed2 cbee afbf 9e4d 7351 9898 c83f
00000350: 7b92 4cf8 7ed4 bd3f 4059 37a3 ccd1 d43f
00000360: 96a7 7b02 ecf4 b73f 6d1c 7026 b1bb b33f
00000370: 94a2 c755 5107 e2bf 8728 4a58 df53 d43f
00000380: 409c fad6 0416 eb3f 5f77 de25 6ff4 c53f
00000390: 83a7 17fc 2561 6a3f 2cfc 0a8e 43a0 b43f
000003a0: 2cb7 b98a 34cc e73f 6409 314c 67fd c4bf
000003b0: 7151 ea07 4be3 c33f bae8 1f52 dd4a cc3f
000003c0: 6db6 45c9 c978 e13f 8c74 4ca8 498d d23f
000003d0: 6a26 954d 9e35 e0bf f263 f802 4bd8 c53f
000003e0: ebcc 0ba5 ffe2 b63f 4ecb 9457 af5b e23f
000003f0: cc84 9e72 68b3 d2bf 469c 4db2 4321 e33f
0.4553329973181971 0.26928533459479864 -0.47528701289327024 0.09617265805779912 0.7242487619958643 0.24235558084966857 -1.1670346750317422 -0.9910961796824109
0.5543714418641364 0.27948409619227244 0.21663889696745087 0.036375486771670656 0.34268920610084375 -0.4160151455777449 0.14643538281961327 -0.04225562073042799
0.5556848975569461 -0.2519853649685457 -0.240161658342355 0.19907857920906383 -0.1147169222899371 -0.2202432708043575 -0.7441361875057712 -0.14578690784165738
-0.05784605102433543 -0.11578518356753488 -0.6228098856554425 0.3100068082874571 0.6913744620479705 0.2108138494175384 -0.5449097041705754 0.03777840943999113
0.5717798409635076 0.03515154636375704 0.048653108437033014 0.350187636796995 0.5026008586266089 0.10732783922914411 -0.04452504637072659 -0.02795819167045374
0.3067213954874142 0.15889115440021104 0.1552244683007418 0.07152751865401509 0.6846304425548339 -0.27990787123758776 0.018218562002582962 -0.29336015570826884
0.40451463989369374 -0.16282574716539835 0.08708520288312913 -0.27216166754135185 0.729205598221111 -0.29392739676764895 -0.40794155082931466 0.03849261002156904
-1.1318812407739498 -0.4769894111183077 1.5834557677811614 1.2426334885949293 0.14860975793310288 0.39467548306682926 -0.37357684283381287 -0.876947095024692
0.686514688871425 0.26076515238123904 -0.6654195201358761 -0.023913374795269223 -0.8451211402409119 -0.3630748189057391 1.4117319044607295 1.2177539551153456
-0.10593154587667267 0.29788679271476526 -0.205751612455811 0.010462455314678144 0.4067394479046482 -0.030984125619785013 -0.0680941411204423 0.19416011834008362
0.491059194033059 -0.016230346076219957 -0.39067747557543236 -0.10213125169849745 0.41022879814096824 -0.3664103454108552 0.22772928544925983 -0.06410134157308146
-0.1973437578810187 0.30168711336953524 -0.5194990919761874 0.05757609009497104 -0.5916075433025424 0.8441835074168317 0.09415937679192583 -0.002053050969842189
-0.024086166657473006 -0.17454663929935937 -0.4197267355820278 0.12411839023101423 0.4642236129013589 0.1051386664500693 -0.7432533957262731 0.08388933208830605
-0.06236874523833182 0.19215682961531128 0.11652368127813333 0.32530513705332353 0.09358096180554151 0.0770827025263416 -0.5633932757746885 0.3176191675380626
0.846437854653125 0.1715220389277716 0.0032201520814298403 0.08057043283314219 0.7436773976785154 -0.16398326130190377 0.15537393461694252 0.22103468427650858
0.5459946566676998 0.28987351832785957 -0.5065452113423821 0.1706632389548584 0.08940122394033138 0.5736920080729335 -0.2922001952484379 0.5978106005176265

0.bias f8 [32]
00000000: e31e ae98 07de ec3f 50eb d563 5281 c1bf
00000010: 0c3d 031a 299b ee3f e5a0 41b1 7e14 ec3f
00000020: 4e15 56b9 6208 ea3f ed71 c183 ff68 e93f
00000030: dbd2 4ba5 c91d ee3f 6c3b 70ad e500 ef3f
00000040: 1556 9b8a 6e47 ea3f 5cde 4885 e17c e83f
00000050: 1875 0934 6986 ea3f bfd8 9aa7 a08a ea3f
00000060: 835a a4ec fbe0 e53f bb3a ccca 769e eb3f
00000070: 9a04 b570 9bd4 dabf 45fe d644 117a a4bf
00000080: e093 4785 0c69 f33f 119e 4690 636d d6bf
00000090: 72e4 8ccc dbb1 f23f c59c 7d4e d38f e03f
000000a0: 0bf6 4653 ea93 ef3f fa64 debf 02d9 f13f
000000b0: 8af9 e40a e2c2 ee3f cde4 ad94 555d dd3f
000000c0: ad65 ff30 1e26 e13f 5a40 9f57 36fc e33f
000000d0: 4a4e eb62 c076 f03f fa75 b10b 6bd4 f23f
000000e0: f43d 1b3a f158 ea3f f6fc 9581 7f52 ea3f
000000f0: 99fb bede 3dba eb3f c872 9011 45e7 ef3f
0.9021032316240646 -0.13675908922945235 0.9564404972133231 0.8775018178976352 0.8135236377571944 0.7940671513893541 0.9411361912194381 0.9688595187634355
0.821219702450153 0.7652442553725893 0.8289075867029707 0.8294223092587102 0.6837138769067937 0.8630937538999527 -0.41922651297142866 -0.03999380078630258
1.2131467062219983 -0.3504265698379366 1.1684225073097676 0.5175568135281529 0.9868060709483769 1.1154811377403449 0.9612894261152161 0.45882167357883646
0.5359030682549722 0.6245376311653772 1.0289920677213495 1.176859899212444 0.8233572134867573 0.8225705653166233 0.8664845800884563 0.9969811766673837

2.weight f8 [2, 32]
00000000: d28e 1f58 aa8f e33f 7ea3 728e b2e5 d7bf
00000010: 4fe6 dee8 8878 ea3f d97c 2f3a ab1e d33f
00000020: 23f0 dc03 7aaa cb3f cc6d 352d ade0 e63f
00000030: c79f 542d bf2e d63f 04a0 19ed 610c e13f
00000040: b6dc 6d32 49c7 e23f db51 c61a 246c ec3f
00000050: 585c 5747 e423 e13f 5bbc 8d7c b459 ea3f
00000060: 0587 f3cc 87ed dc3f e14f bdbb c8e8 e03f
00000070: de3a abd4 447c edbf d5dd b5b5 279d d4bf
00000080: b55f 6ee2 9872 e83f 5e6c 12f0 a7ce efbf
00000090: 29da 9f11 8b69 e43f 768f b7cf 0daa da3f
000000a0: 415b dfbe 5eaf e63f 9c59 f601 d519 d93f
000000b0: d74f a221 4fb8 e73f 2897 00c7 3790 e03f
000000c0: f7e5 e1d0 b690 873f d350 bdf7 acb0 e33f
000000d0: a797 c080 1608 e03f 1eeb 0c9f 9184 e13f
000000e0: 953c 80e8 d0ba e03f 6329 1b5f a698 dd3f
000000f0: e532 204f 124a e63f bcd7 7528 4936 e23f
00000100: ca93 f130 424c de3f 9957 9d3f 6521 dabf
00000110: 5fdb 99cd f04e e43f 6cd0 816b ffe3 e33f
00000120: 06e6 b964 c6f3 e53f f90f d879 49d6 ed3f
00000130: 8fb2 f040 2b87 de3f f879 a929 15b1 d73f
00000140: b3e8 b43a babf e13f 6d4d dae7 c87e e33f
00000150: 5880 0de5 4e8f ea3f 3cfc b07a 0b4c e13f
00000160: 429c 1c62 c6b4 d33f 0494 7a30 d01f e13f
00000170: b3f7 323b 99bd f1bf 55fd 0476 5fe5 dabf
00000180: b6e2 82aa 974a e03f 454c 35ba a336 e6bf
00000190: d45e 8679 e07d e73f 0261 c146 387c db3f
000001a0: 0ce7 6f16 3388 e63f c36f 4b1a 9cfd e33f
000001b0: 8a8d b81a dfc5 e23f efa4 039e d6b1 cb3f
000001c0: 90f7 ff06 ff78 cf3f 5cb8 caea 3f32 da3f
000001d0: 47df 23ab 6865 e13f 667d 3318 2282 e43f
000001e0: c609 f5cf da6d de3f ab75 591b 727a da3f
000001f0: 9173 f589 70b4 e73f 9c8c b8ad 4aac e03f
0.6112872811467815 -0.3733946219531886 0.8272137211089986 0.2987468784539949 0.216140033613443 0.7149263270361472 0.34660319735348505 0.5327615385876929
0.5868268952316587 0.8882008097594353 0.5356313126930088 0.8234503205002385 0.4519977094151815 0.5284160296237098 -0.9214195398033913 -0.32209198708684755
0.7639889166339261 -0.993976563349303 0.6378836960055355 0.4166292694555901 0.7089074829080816 0.3922016638911374 0.7412486702837623 0.517604721714382
0.011506489038072039 0.615316852442016 0.5009872927373537 0.5474327188925121 0.5228046933206253 0.462442009808589 0.6965419335770916 0.5691266813507734
0.4734044530835574 -0.40828829967846897 0.6346363082546808 0.621581754660395 0.686007687311929 0.9324080829396727 0.4770000585729485 0.3701832682471884
0.5546542307486305 0.6092266586660294 0.8299936746298142 0.5405328174891859 0.3079086263773584 0.5351334521152471 -1.1087887108292136 -0.42024981046048043
0.509105523137882 -0.6941698681715783 0.734115826943674 0.4294567767115184 0.7041259229874597 0.6247082246368268 0.5866542360203522 0.21636469569720115
0.2458800110034045 0.4093169968499575 0.5436290114002781 0.6408853981665004 0.4754550009567108 0.41372349425167937 0.7407763189799984 0.5210317032800904

2.bias f8 [2]
00000000: 5fc1 0927 a187 de3f d994 72ae 9275 d93f
0.47702816784205554 0.39780108486077165
