models/DQN_CartPole-v0.pt (torch, 3599 bytes, 4 tensors)

0.weight f8 [32, 4]
000000 81 07 77 5e 63 dd d4 bf 45 9d af 93 c6 34 d6 3f
       -0.3260124609479292 0.3469711725469618
000010 5c ae e6 da 1e a1 d5 3f 8e 95 da 5b 4c f0 42 bf
       0.33795901658115723 -0.0005779621930811928
000020 24 9a 26 ec 3b 27 d0 3f cb f2 4c 13 cb 17 d4 3f
       0.25239465772247827 0.3139522255403732
000030 18 dd e0 d9 96 25 0e 40 c8 a4 c2 4e d2 45 d2 3f
       3.768354131865305 0.2855115670341317
000040 88 3a 12 cc ef 90 bf 3f 23 1c b1 43 35 de f7 3f
       0.12330530864913147 1.491750015660508
000050 5a dc 24 80 f4 7c 13 40 04 fd 55 5a 0c 7e f1 3f
       4.872026445627023 1.0932734993692188
000060 cd c9 d8 a5 64 06 e0 bf 51 fd ff 79 1a 5d d7 3f
       -0.5007804145046123 0.3650575820356226
000070 6e 13 c2 27 f8 1d d8 bf ad 2f 6a d1 97 71 db 3f
       -0.3768291843664916 0.4288081688944157
000080 fe 6c 5b 9b 84 56 f3 bf a3 34 ef 8e 40 61 e1 3f
       -1.2086225575101817 0.5431216041266861
000090 b1 4c 49 92 c6 08 0a 40 e8 1c b5 43 bc cc d5 3f
       3.2542849949473625 0.34062105762536854
0000a0 66 3e 93 d6 ff be d9 bf 44 a9 99 39 4d 7d c0 3f
       -0.4022826762638715 0.12882390320312187
0000b0 e2 58 2c 80 be bb e0 bf da d8 7d 22 e1 65 de 3f
       -0.522917986238806 0.4749682270843444
0000c0 00 00 00 80 e7 95 c5 3f 00 00 00 00 c8 f0 cb bf
       0.168637216091156 -0.21828556060791016
0000d0 00 00 00 00 d4 e3 d4 bf 00 00 00 00 f6 9b b5 bf
       -0.32640552520751953 -0.08441102504730225
0000e0 69 f6 cc ed c6 b9 cc 3f 80 c8 68 bc 53 2c e6 bf
       0.22441946612700583 -0.6929110221738171
0000f0 83 69 18 e9 67 ad f7 bf 68 24 ea 96 ea 97 e4 bf
       -1.479835424927473 -0.6435444781829007
000100 6c c4 55 a1 67 d0 e2 bf 42 c7 4f 26 3b d5 bf bf
       -0.587940039737203 -0.1243473976644767
000110 bd 30 e5 8e 10 6e ce 3f 3d e2 a7 a9 6f e6 d1 3f
       0.2377339074831805 0.2796897084040529
000120 22 75 bd 92 b8 97 d7 bf 7b 28 ba 95 4b 8e e8 3f
       -0.36863531427464313 0.7673700260504711
000130 c6 4c 32 de 2b ed c1 bf 16 4d 91 ab 56 e2 e0 3f
       -0.14005039548337644 0.5276292181901308
000140 3a de 74 5a 1f 82 a3 3f 2c 41 63 15 2c 5f be bf
       0.03810213069158093 -0.11863971254502265
000150 0f c4 b8 3c 18 17 cc bf d7 bc 4e d5 fc 4d ae bf
       -0.2194547935955886 -0.05918874839641724
000160 d3 ee c4 65 4e 8a c6 bf 29 8b 41 e6 f4 79 d7 bf
       -0.17609577149584385 -0.36681864248218915
000170 5a 3f 53 db 86 18 a5 3f 1e d9 a1 f9 19 0f d6 3f
       0.041202749512761996 0.3446717202963486
000180 98 0d a4 ae bb ff f9 3f d6 8a f8 6d a9 48 f6 bf
       1.6249348470599667 -1.392739705632882
000190 7f fa 6c ec 47 09 12 c0 44 86 ff a1 e3 00 f2 bf
       -4.509063429023285 -1.1252170875599328
0001a0 95 39 7b 2e 77 8c c7 3f ed 2c 07 58 60 6d df bf
       0.1839741684875206 -0.4910508021973346
0001b0 28 f3 6e 90 cb 45 ee bf 9c 98 a9 28 a0 64 c9 3f
       -0.946019918533783 0.19838335023377318
0001c0 4a 5b 42 91 02 f0 e3 bf 4c 20 88 7c b5 0d d7 3f
       -0.6230480992406708 0.3602117267732907
0001d0 36 04 c3 6b 56 51 db bf 03 70 e8 2d 62 8d e2 3f
       -0.4268394520150339 0.5797587296142414
0001e0 b0 92 90 e9 68 e4 ec bf bb 04 e7 8d 5b 52 da 3f
       -0.9028820573626799 0.4112767110601216
0001f0 c1 c1 24 75 3c d7 dc bf 44 db 15 e9 ce d5 c7 3f
       -0.45063697280695797 0.18621240979310916
000200 82 fb cf a2 c9 d3 db 3f 0e 25 89 b9 a8 54 d7 3f
       0.43480149173404226 0.36454218023989504
000210 11 95 a0 77 9a b2 eb bf 9d 1f 18 b9 be 80 e1 3f
       -0.865552171370526 0.5469659438249327
000220 50 f7 ac 5a d4 81 d5 3f d4 93 5d e7 da ef ee 3f
       0.3360491643432981 0.9667791861398833
000230 31 41 a0 2b 47 5e da 3f 20 8a 35 79 c2 2c e0 3f
       0.41200427303648995 0.505463825928306
000240 8b 0b 69 4e e8 d8 cf 3f 5f 77 07 64 e5 04 ea 3f
       0.2488069899428321 0.8130976632780679
000250 ae 54 67 6b 82 ad c2 bf f6 93 26 80 53 57 e5 3f
       -0.14592008823698194 0.6669099333709017
000260 7e 1b e6 a2 ab d2 f3 3f 10 19 46 68 77 9f f3 bf
       1.238933216403637 -1.226432235068902
000270 f1 f8 3d 51 4e c5 11 c0 3f 39 30 c1 72 71 ec bf
       -4.4426815694880455 -0.888848664589922
000280 a2 e0 ab 45 5f 39 55 3f 47 5a 70 b1 d1 96 da 3f
       0.001295416869366441 0.4154552681733645
000290 0e 3d da 50 ae bc f0 bf 8f 83 49 64 fc 07 ed bf
       -1.0460646780300666 -0.9072248419507661
0002a0 6f 46 90 6d ad e5 03 c0 c1 bf 6d 76 c6 ec ee 3f
       -2.4871471938757206 0.9664032280979812
0002b0 4f 7f d3 02 b1 67 0d 40 8b d7 d6 7e 79 76 e6 3f
       3.6756305905145505 0.7019622304276124
0002c0 24 b7 81 74 00 0c d4 bf 5d 95 eb 65 6c 2b d9 3f
       -0.3132325303803205 0.3932753558459206
0002d0 89 5c 94 94 4e 00 c3 3f bd e2 cb a2 17 16 b8 3f
       0.14844686751232342 0.09408710217020207
0002e0 e6 87 c8 22 44 5e e4 bf 91 0f f0 97 51 7e e0 3f
       -0.6365070990907469 0.5154197661909042
0002f0 42 be 6d 63 f7 0e 10 40 eb f3 8e 04 fe 5b da 3f
       4.014615586827462 0.41186476178319137
000300 de b6 17 2b b6 e2 ef bf 5f 83 81 55 af 5b a9 3f
       -0.9964247552540788 0.04952762526295972
000310 be 95 5e 01 04 d6 06 40 92 ca 90 13 f3 bd e6 3f
       2.8544998270978956 0.7106871969356965
000320 95 fb 49 3b 15 4f f0 3f 9b a9 f5 bc aa 85 d0 3f
       1.0193073574043627 0.25815838292205634
000330 4e 4a 04 a8 4d 9a 0e 40 df bb 1f 3b 37 a4 c5 3f
       3.8253434301671296 0.16907396685516482
000340 0a 60 b7 94 e6 a9 f8 3f d6 3d a5 66 84 ba c0 3f
       1.5414796647291973 0.13069205295549463
000350 24 82 43 9e dd 5b f6 bf 3f 71 00 93 75 45 b0 bf
       -1.397428148477169 -0.06355986441525817
000360 20 bc d6 77 a8 fd ee bf e5 3d b5 fe c8 07 f5 3f
       -0.9684641209222526 1.314400668099432
000370 00 e5 e4 9c 43 68 12 40 a7 82 4d b1 4d 27 ee 3f
       4.601820422621358 0.9422977889008352
000380 00 00 00 c0 d4 c5 d2 3f 00 00 00 00 19 9f d8 bf
       0.29332464933395386 -0.38471055030822754
000390 00 00 00 80 45 da c5 bf 00 00 00 00 ce da c6 bf
       -0.17072361707687378 -0.17855238914489746
0003a0 fd ee 01 98 f1 7d df bf 72 0b 36 06 91 b3 e9 3f
       -0.492061994976879 0.8031697388945374
0003b0 ba 62 4f 8e aa 13 e0 3f 67 4c 39 a2 0a be b5 3f
       0.5024006633276124 0.08493105373899966
0003c0 3f 59 4f 08 98 20 bf bf fd b2 49 46 35 27 e5 3f
       -0.12159109309081816 0.6610361454782773
0003d0 22 e1 d7 af 4f 95 d6 3f 2f 95 51 f3 cc 91 9a 3f
       0.35286323711581435 0.02594681010341054
0003e0 e0 5c aa 3f 43 9c f0 bf 84 72 10 45 b5 6e ec 3f
       -1.038150070851593 0.8885141705428201
0003f0 ee b9 b0 e7 15 fb ed 3f a2 61 65 53 db 1a c2 3f
       0.9369000935747047 0.14144460269996012

0.bias f8 [32]
000000 13 51 6c 25 b7 73 ec 3f fa 15 a0 7d 40 a0 e1 bf
       0.8891254168434294 -0.5508120015735465
000010 2c 24 26 40 52 aa 91 bf dc 60 03 17 41 9b fa 3f
       -0.01725128666433677 1.6629038714364048
000020 7e 14 7f fc fc e8 ef bf ca 77 a8 bd 9f 71 fe 3f
       -0.9971909457750738 1.902740231372706
000030 00 00 00 c0 33 cb d0 bf 32 e1 57 36 9d 86 d7 bf
       -0.2624024748802185 -0.36759119326554235
000040 48 6f 14 0b 43 31 cd 3f 11 4c 48 85 4e d4 f4 3f
       0.22806585350996955 1.3018326956123512
000050 f5 10 dc 48 a6 8a cd bf 34 96 a8 86 74 06 db 3f
       -0.23079374845122627 0.42226899290321573
000060 98 23 2c 4f 8d d7 e9 bf 2f 71 bf d8 25 df c6 3f
       -0.8075624986969272 0.17868493159665763
000070 6e d6 02 91 5a 82 f8 3f cc bd ee cb c8 ec f4 3f
       1.5318246521468626 1.3078086820713564
000080 9f 02 91 70 42 bf c7 3f e9 58 73 f8 2b da fc 3f
       0.18552427765282162 1.8032645897961237
000090 0e 19 95 09 2d 55 04 40 04 33 14 7e 12 ae d2 3f
       2.541589808333021 0.2918745261420528
0000a0 7c 3a d9 7d a8 26 d3 bf 5d 25 e3 b3 47 c3 b3 3f
       -0.2992345074643834 0.0771984876802398
0000b0 25 4b 2f 38 14 7a dd 3f 89 27 82 11 9c a6 de bf
       0.4605761097601991 -0.4789190455418227
0000c0 21 5d ed 82 54 84 e9 bf d4 78 b1 5e 5c b6 e6 bf
       -0.7974035794422073 -0.7097608422734774
0000d0 cd 19 a7 ea 7e 5a b9 3f e5 20 be ab fe 9a e5 bf
       0.09903710583521459 -0.675170264658871
0000e0 00 00 00 80 55 83 d7 bf ae a6 95 9c 95 d8 fb 3f
       -0.3673909902572632 1.740377055796141
0000f0 76 88 b1 c2 de f7 01 40 f6 7d a3 65 e6 b2 fb 3f
       2.246030350726012 1.7311767549762158

2.weight f8 [2, 32]
000000 cf 25 88 04 6c ee d3 3f 1f 78 00 cb 92 c4 f8 bf
       0.3114271206146357 -1.547991555190954
000010 61 de 17 5d 48 19 f7 bf 16 ba b6 be ce 50 e4 3f
       -1.4436725269751138 0.6348642086866814
000020 71 f9 3a fb e4 4b f7 bf 53 92 ca 16 ec 09 e2 3f
       -1.4560289205251957 0.5637112088339314
000030 00 00 00 00 6e aa 88 3f fa d0 44 3e 8a 42 f4 bf
       0.012043818831443787 -1.2662451202750717
000040 8f b7 7a 9f 88 b0 ca bf 70 5a 39 b3 d8 c2 dd 3f
       -0.20851238047674456 0.4650174856409768
000050 e6 d8 e4 a4 cd 05 b5 3f ec 13 dc 12 4a 5c b3 3f
       0.08211980128985238 0.07562697372857458
000060 96 b9 45 f2 59 ba 01 c0 a8 af fa 82 19 75 d5 3f
       -2.2159918715980877 0.33527219572965317
000070 0e 36 e7 2e 66 9b e4 3f 57 85 66 ab 91 cb e5 3f
       0.6439696231915961 0.6810997340836974
000080 a8 34 ac f2 c9 04 d5 3f 29 2d 12 4f f8 b2 e3 3f
       0.3284172887659431 0.6155969185214519
000090 b0 3a 1b 52 cb 37 de 3f 61 60 b1 14 cb 74 fd bf
       0.47215540903281816 -1.841013985473204
0000a0 ae 5e c8 55 ca 47 c5 bf 4e ed 56 71 50 6f f4 bf
       -0.1662533682690443 -1.2771763255430701
0000b0 33 56 db 55 bc 94 cb 3f 9a bf 4f aa 0c 44 f6 bf
       0.21547655288911613 -1.3916136410516402
0000c0 90 57 8e 02 70 fa f8 bf eb 1b 97 4c dc b2 f4 bf
       -1.5611419772953674 -1.2936671249205982
0000d0 96 d5 ef 5b 78 75 db bf 24 dd 94 25 6d 87 f9 bf
       -0.42904480913360865 -1.5955630748774832
0000e0 00 00 00 80 c5 f6 a1 3f ed d5 ae e8 1f c1 df 3f
       0.03508584201335907 0.49616239283508784
0000f0 9e f8 8b 38 a4 98 e1 3f 44 2d 48 50 c6 e5 da 3f
       0.5498829941204979 0.4202743324282958
000100 18 f5 9c b6 b9 d0 e0 3f 22 fd 12 33 c3 1f f9 bf
       0.5254791800177001 -1.5702545161328278
000110 8d dd 9a 00 b1 41 f5 bf f4 7b 12 79 94 02 e1 3f
       -1.3285379432325926 0.5315649380389673
000120 b7 9e 9d 80 7e 32 fe bf 8c 76 99 1d eb 0c e4 3f
       -1.887327673344698 0.6265769556154779
000130 00 00 00 a0 6f 19 c4 3f 78 fc d3 6b 1e c0 f3 bf
       0.1570262461900711 -1.2344040119203594
000140 7c d4 c8 01 fa ae 90 3f b1 76 9b 06 3d ce e5 3f
       0.016292482718388332 0.6814255837486681
000150 00 00 00 40 a6 e7 af bf 95 fe dc 12 d4 1b d6 3f
       -0.062314219772815704 0.34544851152529904
000160 ec b4 e8 d1 a1 9f 01 c0 cc 49 4a 81 82 6d be 3f
       -2.2029453658238847 0.11885848671435112
000170 f4 14 d9 6e 87 f7 dd 3f 81 ee d4 f0 6c ef db 3f
       0.4682329733371511 0.43648837584235173
000180 64 7f 35 da fe ae d2 3f 1d 4c 47 4f 41 e8 e3 3f
       0.29193087872953627 0.6221014545830063
000190 ee cc fa f4 88 c8 de 3f 5c 61 12 24 4e 1c fc bf
       0.48098968433187295 -1.7569104584745991
0001a0 7d f8 79 90 5c 63 d5 bf 38 74 29 ac 49 c5 f3 bf
       -0.33418954953220475 -1.2356659627032638
0001b0 42 c2 a1 b0 2b 23 d6 3f 81 d6 38 aa 01 10 f6 bf
       0.34589664696889966 -1.3789078378007675
0001c0 0d 97 58 bc 01 02 ed bf f3 1a b4 a0 1a f1 f5 bf
       -0.9064949682840237 -1.371363284824551
0001d0 fe 89 23 84 d9 3a e2 bf 8f 7d 05 6c d1 ed fb bf
       -0.5696837979160703 -1.745561048468378
0001e0 00 00 00 80 10 c1 c3 bf 8f 04 a6 e3 b7 f4 de 3f
       -0.1543293595314026 0.4836864207391693
0001f0 f1 90 c4 6f 25 4f e1 3f 71 0e 92 a1 08 57 db 3f
       0.5409114058461723 0.42718711641666746

2.bias f8 [2]
000000 41 6d 09 01 5b a3 d7 3f 58 07 4a a3 60 8d d5 3f
       0.3693454275250652 0.3367539972897382
