models/DQN_CartPole-v1.pt (torch, 3599 bytes, 4 tensors)

0.weight f8 [32, 4]
000000 a0 e3 06 6d 4e d9 dd bf 21 2d d0 24 88 a8 e4 3f
       -0.4663883270946432 0.6455727309234228
000010 d5 b5 cb f2 03 47 fc 3f 04 db 4c e4 04 16 cd bf
       1.7673377498825762 -0.2272344698664811
000020 65 91 d3 15 b9 b6 07 c0 41 cc 90 fa 64 2e fd 3f
       -2.9642202096167005 1.8238267696113015
000030 42 3e 6b 43 bf 68 10 40 d8 23 88 d8 a5 ca f3 3f
       4.10229211179791 1.2369745691560095
000040 23 9b 3c de cd 4f 0b c0 40 a2 db 03 60 fe dc 3f
       -3.413966881012486 0.45302582146408454
000050 67 5c 80 02 5d bb 06 40 a3 1e 69 95 15 cf d4 3f
       2.841485995809808 0.3251394232833979
000060 b8 8c cd 17 5c 04 dc 3f cb 01 5f c7 60 02 b5 bf
       0.43776609730248195 -0.08206753604372989
000070 90 2f a5 07 a6 88 f1 3f e3 82 ec b6 b5 be ca bf
       1.0958614634173252 -0.2089450019057245
000080 d6 99 68 d0 b2 9c 08 c0 73 0e 46 db 26 1d c5 3f
       -3.0765129358216923 0.16495214182588178
000090 59 9e 35 61 68 d8 04 40 16 85 7c 1a 13 51 d3 3f
       2.6056678385246355 0.3018234022766405
0000a0 1f 2e 89 ff 59 40 de 3f 1a 4f db 43 14 05 d7 bf
       0.4726777072398551 -0.359685007349286
0000b0 b8 c4 c2 7e ed bb e2 bf 38 a9 5f b4 e8 78 ca 3f
       -0.5854403949544098 0.20681484992321386
0000c0 5a 02 cb b9 98 9d b0 3f 8a 06 49 5b 86 97 d5 3f
       0.06490473304712321 0.3373733416993693
0000d0 ed 0c 06 92 c2 32 ec 3f 1b 74 ed 55 54 cf d3 3f
       0.8811962940239063 0.3095293845306643
0000e0 5d c8 66 7c cf 77 a7 3f 63 18 28 c1 7b b8 e4 3f
       0.045835956512193056 0.6475199482527042
0000f0 d8 8c 4a 89 1d 05 ec 3f 44 c0 9a 29 7f dc dc bf
       0.8756244355648972 -0.45095805228175245
000100 4d 37 98 3f 15 55 df bf 86 92 96 0f 93 dd d2 bf
       -0.489568054298492 -0.2947738315799956
000110 e3 87 31 ce eb 8c d5 3f 0b 66 ac fc 7d 08 b1 3f
       0.33672614227373127 0.06653582972321474
000120 d4 13 c1 36 77 d3 fa 3f e7 ab a4 57 6a 44 f1 bf
       1.6766273630939752 -1.0792029784740806
000130 8e 4f 5c 2a 21 72 12 c0 45 ad 22 cd 4a 6b f0 bf
       -4.611454641231729 -1.0261943829635396
000140 00 00 00 40 5b ad da bf 00 00 00 80 a8 23 de 3f
       -0.416830837726593 0.4709264039993286
000150 00 00 00 00 21 04 b7 3f 00 00 00 40 45 b8 d0 3f
       0.08990675210952759 0.2612469792366028
000160 d2 64 0e 4f 68 61 d1 bf d5 1d 19 b0 a0 df e1 3f
       -0.2715702793153244 0.5585483016411056
000170 48 f3 d1 5b 7e 0d fd 3f 44 75 87 94 f5 b9 e1 3f
       1.8157943331454636 0.553950109573329
000180 00 00 00 00 21 13 df 3f 00 00 00 00 02 33 b5 3f
       0.48554253578186035 0.08280956745147705
000190 00 00 00 80 93 ed d2 bf 00 00 00 00 20 9e c0 3f
       -0.2957504987716675 0.12982559204101562
0001a0 40 c9 17 6a 24 7b d7 3f 94 cb 5b 40 a8 7b c7 3f
       0.366891006094324 0.18346121923931646
0001b0 87 1e 53 e5 a3 ab ee 3f c0 e6 72 8c 92 b0 e0 3f
       0.9584521750447984 0.521554254831436
0001c0 a4 4d 79 99 00 8c d3 3f b6 18 ea c8 84 f3 c9 3f
       0.3054200648086527 0.20274410066867227
0001d0 5d 20 03 3f 67 36 f4 3f 39 7c 9f f7 b5 d8 c3 3f
       1.263282056943374 0.15505098906484863
0001e0 37 39 ab ef fe 46 c8 bf 3b 62 a2 16 f9 fc d5 3f
       -0.1896666212327973 0.34356524668104144
0001f0 43 45 2f c6 05 8c e6 3f 50 01 e0 59 92 2a 80 bf
       0.7045925970834691 -0.007893699043052621
000200 5e 06 6b 03 74 51 dc bf 6c ad 66 2f 8d 9f d6 3f
       -0.4424715073947477 0.35348825100910264
000210 a7 d9 cb 96 53 ba d2 bf f4 e4 3e 29 00 11 c3 3f
       -0.29262246824455435 0.14895631803464193
000220 56 d1 c7 5c 35 c3 a5 bf 6b 89 a9 44 e0 b0 e0 3f
       -0.042504947257756484 0.5215913144168501
000230 16 79 3a f8 3e 26 f7 3f 29 71 5c 7b 7a 4d e3 3f
       1.4468373962805052 0.6032078179737584
000240 ea 0b 86 c7 8f 0d fa bf 4f 42 8a c7 51 7e e9 3f
       -1.6283109468356494 0.7966698548571659
000250 78 95 69 e1 4b ab 09 40 e1 7c 27 b7 b8 42 e2 3f
       3.20864082435099 0.5706447198134833
000260 6e 14 1e 36 ad 5c cd bf 89 db c5 58 83 c4 d7 3f
       -0.22939076559501664 0.3713692061350505
000270 d9 77 53 c8 c6 c0 f4 3f cf 9c 13 74 b6 a6 ca 3f
       1.2970645737873296 0.20821266811183256
000280 05 0e 24 d7 8a 53 eb 3f 3c 39 0c 46 18 b4 f4 bf
       0.853948040196372 -1.293968461631791
000290 29 60 d5 48 4e c4 0e c0 cb e9 d7 f0 bf 72 ed bf
       -3.8458524408452104 -0.9202575401280283
0002a0 4b 70 36 20 35 73 dd 3f 4f b3 f3 09 86 86 c4 bf
       0.4601567091538114 -0.16035533414778988
0002b0 9e 61 05 b2 b1 0c e5 3f bc a5 e2 43 cb cb d2 3f
       0.6577995755169928 0.29368859891345855
0002c0 98 1a 3f b4 9a 44 d6 3f e4 08 24 57 83 d6 cf 3f
       0.34793727495381566 0.24873391871375994
0002d0 14 eb 77 eb 29 71 dc 3f cf 6d 2f 03 5b fc e1 3f
       0.44440696711505834 0.5620551168644229
0002e0 68 4a 17 a7 ce cc d1 bf 33 94 6d aa 46 c7 d7 3f
       -0.27812544171789577 0.3715378441177705
0002f0 31 33 dd a1 5a 8f fe 3f 5e 8f cc 8a cc 6b b7 bf
       1.9099985430540978 -0.09148863209389677
000300 ef bc df 94 f6 0a 03 c0 93 08 cf fa 6f a1 f7 3f
       -2.3803531294612337 1.4769134328094295
000310 a5 14 c6 40 45 94 0c 40 c6 fa 42 5a 90 91 ed 3f
       3.5723977146577277 0.9240190279886853
000320 ac f7 23 74 c4 02 98 bf 94 e5 6f 81 4d 8d e0 3f
       -0.023448056782391966 0.5172488716190622
000330 79 2d 4f 8f 44 3a eb 3f 44 cf 75 e1 da 7c e1 3f
       0.8508627699861072 0.5464910892028247
000340 e7 05 f4 b5 fc b8 fe 3f d7 d0 08 d7 9e e9 f6 bf
       1.9201628787562812 -1.4320362472326928
000350 21 9f a5 30 13 ed 10 c0 0f 32 ac 6b d6 00 ed bf
       -4.23151851664423 -0.9063522437077739
000360 a7 57 71 7e 6e c8 03 c0 8e 16 6b 45 e7 cd f2 3f
       -2.4728670004214623 1.1752693854954575
000370 41 77 f2 83 72 c7 10 40 94 92 59 1b 8f d9 f1 3f
       4.194772779153767 1.1156149929385366
000380 2d 2b 5a 29 6b 37 c9 bf 33 a5 9e b2 8d 4e bc 3f
       -0.19700374144698554 0.11057363138992997
000390 59 86 c2 b3 d3 90 e5 3f d8 7e 78 f7 03 87 c7 3f
       0.6739290724692167 0.18380784591226162
0003a0 c2 45 31 c1 b7 ab c1 bf 66 6d 4f f2 76 f5 c8 bf
       -0.13805291112161738 -0.194990986171301
0003b0 5b 6a bc 5b 7c 2a f2 3f f7 ff f9 5c 78 80 d0 bf
       1.1353725036084572 -0.25784119682066325
0003c0 05 40 5d 6e f9 1a 0d 40 71 42 da 99 e2 c1 e1 bf
       3.6381710645873704 -0.5549176220830089
0003d0 2b 92 bf 8c 8f 3c 10 c0 44 67 d7 47 0f eb f4 bf
       -4.0591413490224495 -1.307387619619889
0003e0 2a 3b ed 09 57 a9 00 c0 d9 e7 d4 bc 37 20 ed 3f
       -2.082685544540614 0.9101828277700817
0003f0 9e 36 b9 f6 59 b2 0a 40 e1 a4 2a 3a 47 a2 f1 3f
       3.337085654761565 1.1021187088138549

0.bias f8 [32]
000000 5c d8 88 d2 77 73 f0 3f fa bb ef c9 9b f9 aa 3f
       1.028190443420974 0.05268561210674956
000010 f3 63 19 2d c2 81 be bf c9 74 4e aa e9 01 e7 3f
       -0.11916745759062035 0.7189834905908806
000020 a5 93 b0 45 ca a5 cd bf 7b 6f 89 dd 12 71 d8 bf
       -0.2316220131189343 -0.38190147051295015
000030 3c 3f 51 19 9f e3 fb 3f f1 ed d2 d0 f4 23 dc 3f
       1.7430716504058656 0.4396945990845032
000040 4e 45 d8 de 59 c6 e7 3f c9 90 da 12 72 45 da bf
       0.7429627754628798 -0.4104886230582108
000050 00 00 00 00 38 c3 d7 bf 19 91 ea 69 a0 6d 01 40
       -0.3712902069091797 2.1785286211690047
000060 00 00 00 c0 08 42 d7 bf 6b 70 df 39 04 63 ef 3f
       -0.36340540647506714 0.98083697608264
000070 ef df 6e b0 a9 95 02 40 02 78 7a 0b b1 cf be bf
       2.32307756269801 -0.12035662203058453
000080 a3 bd 61 9f c5 21 c8 bf 30 49 94 1e ad 1c ff 3f
       -0.1885306385261006 1.944501037073291
000090 b9 98 e5 db 26 4e b9 bf e6 04 9d f6 ed 2d e8 3f
       -0.09884875172210429 0.7556066338221654
0000a0 78 81 d4 6f ac 2b e4 bf e5 5a 3a 5e 8a 4c f4 3f
       -0.6303312477285052 1.26868664558213
0000b0 dd 56 41 81 9f c8 b6 bf 7f 10 74 85 e6 1e 03 40
       -0.08899876504559807 2.390088121990686
0000c0 3b e8 2a 84 fd 1f d8 3f fd 28 c2 55 93 c2 f6 3f
       0.37695253283493785 1.4225037908495886
0000d0 10 80 b1 19 6b 4e e0 bf 99 52 d5 ef bc 76 c3 bf
       -0.5095725538085407 -0.15206109724626485
0000e0 75 29 68 01 45 29 fa 3f 0e f4 ad ec de 48 f0 3f
       1.635075574393878 1.0177907223981069
0000f0 0d 19 be 48 bb dd ee bf ac e5 a0 c4 7a 1c b6 3f
       -0.9645668431046787 0.08637206364155386

2.weight f8 [2, 32]
000000 1f d2 dd 31 79 b2 e0 3f 91 9f 0e c8 ab ed f9 bf
       0.5217863058047135 -1.6205251517039623
000010 59 c6 59 0e 81 da f0 bf 73 ea 1a 4c 5a 94 dc 3f
       -1.0533457336972758 0.446554731675554
000020 cd 1b d0 49 cb 43 ef bf 54 ab 26 24 4d 57 d4 3f
       -0.9770256463679005 0.3178284504926314
000030 f6 fe 95 15 8b 6e de 3f cc 1b 73 78 aa 78 d3 3f
       0.47549702747345124 0.3042398620859188
000040 43 2a d1 b3 28 16 d6 3f cf f9 e2 14 fb f3 f1 bf
       0.34510247764834306 -1.1220656219371568
000050 00 00 00 00 88 a5 97 bf 6d 5a 1f 90 c2 af e2 3f
       -0.02309238910675049 0.5839550795452176
000060 00 00 00 00 3d 26 a3 3f fe 8c 4c 6b fe b9 d7 3f
       0.03740110993385315 0.3707271621553473
000070 3c 07 e4 65 43 36 e1 3f 7e 27 fb 6a db 87 bf 3f
       0.5378739347508836 0.12316676484911501
000080 e5 37 ba 3f 76 4a bf bf be 36 f9 fa 1c 09 e3 3f
       -0.12222994857640364 0.5948624517274863
000090 80 d8 76 a8 30 e8 e6 bf ae 9e 22 a1 d6 e0 dc 3f
       -0.7158435144726951 0.4512230466448085
0000a0 df 56 07 4f e4 f2 fe bf 09 6f 97 20 c6 d3 dc 3f
       -1.9342997633988757 0.4504256552006472
0000b0 1c 20 0c a3 32 bb f1 bf 2a c1 63 98 d6 31 e3 3f
       -1.1082025879895872 0.599833772312228
0000c0 bf 01 94 28 d8 44 f9 bf b1 b3 41 da 7a fd e3 3f
       -1.5793077073177384 0.6246923697304877
0000d0 e6 29 2e ad a4 3b f3 bf b7 82 5c 45 e1 e9 f1 bf
       -1.202061344609882 -1.1195996007374285
0000e0 a5 92 23 cc 1e 5e e0 3f d8 25 7f a9 b4 1c d3 3f
       0.5114892947281829 0.2986270575753145
0000f0 0f 6e e4 f2 d8 be f3 bf af bd db ea 1e aa f3 bf
       -1.2340936172466888 -1.2290333913950737
000100 f1 70 cc 9b 2f b4 dd 3f 19 9e 09 5d 5f 4d fb bf
       0.4641226788969695 -1.7063897737770104
000110 7b 08 dd ba 74 c0 eb bf 29 6e 86 7e 72 5c d1 3f
       -0.867243161170577 0.2712675319287166
000120 75 81 d7 20 71 98 f3 bf eb f0 cd 53 44 f4 c6 3f
       -1.224717262543064 0.17932943431868095
000130 51 ec 26 c9 29 f0 d9 3f 19 9f c1 9f 12 29 ae bf
       0.4052833999991821 -0.05890711021566925
000140 3a e2 52 64 ba b5 c8 3f cb 3d 92 a5 bf b2 f4 bf
       0.19304590128537474 -1.293639799845425
000150 00 00 00 20 31 eb c4 3f 3e c8 4f 7e 4e 6e e0 3f
       0.16342748701572418 0.5134651629471205
000160 00 00 00 40 cc 51 b8 3f 41 31 b2 10 49 f2 e2 3f
       0.09499813616275787 0.5920758558363916
000170 55 46 61 23 5b e5 e2 3f 6f 17 d7 43 d3 4a d9 bf
       0.5904975596442436 -0.3951919710638014
000180 1d 91 a5 c1 38 c6 ae bf 48 58 a9 3f b8 da e4 3f
       -0.06010606159068941 0.6516991847408997
000190 67 6f 88 4a 92 54 f3 bf e9 1c 20 68 4f 9c e7 3f
       -1.2081473266070704 0.7378308328342459
0001a0 21 21 9a 72 d8 23 fa bf 38 93 38 f3 23 73 d4 3f
       -1.6337513424533159 0.3195276141362231
0001b0 c7 2f 20 7c 68 70 a7 bf ac a4 84 63 4b f6 e1 3f
       -0.04577948107916501 0.5613152450288417
0001c0 c4 3f d0 26 f9 a9 f1 bf ce 62 ab 0b e7 05 e0 3f
       -1.1039973751212395 0.5007205226821385
0001d0 47 ae 75 4c 08 50 f4 bf ac 49 8b 30 ee 02 f5 bf
       -1.2695391642290745 -1.313215436578143
0001e0 99 78 50 98 be f4 e4 3f 9b a8 ee 5c 5c 35 df 3f
       0.6548760390176255 0.4876318843404392
0001f0 08 82 2c e7 6c 25 f8 bf c4 00 f3 d6 dd a8 f1 bf
       -1.5091370611409065 -1.1037271877722086

2.bias f8 [2]
000000 99 7c bc 72 6f 3f d5 3f 12 5f 2a 10 58 54 d2 3f
       0.33199678616251443 0.28639794901526827
