models/DuelingDQN_CartPole-v0.pt (torch, 74623 bytes, 10 tensors)

feature_layer.0.weight f8 [64, 4]
0.09866159499080858 -0.47648554327855164 0.13801969712332093 0.1652091522456452 -0.20420795157490482 -0.030606033704869532 0.7563154589951191 0.17472458658763979
1.4440513093093534 0.025592306215198434 0.17401610096131628 -0.16974746153330708 -0.058733010059938126 -0.24580242599945562 -1.1018940297797504 -0.450912885215538
-0.2501850157120376 0.02376560286517965 -0.2428421543591379 0.1335978016043983 -0.06986198563211092 -0.0065251989666024034 0.7343251874205707 0.09432893270949155
0.11018348022868739 -0.1842047361344813 -0.527916347738194 0.3109566508098238 -0.12959149230571002 -0.08485210648366083 0.4331248833194193 -0.14495555108132221
-0.4184101049396654 -0.12440858393811668 0.24949804950776794 0.5226940593153375 0.28979841240066584 -0.41852589413083136 -1.4764331222993796 -0.5579217191338444
0.026457615707852013 -0.29390979996904143 -0.16855686384965698 0.3978986756402617 -0.2144349341999382 0.33167859009992134 0.5236998433214706 -0.5750242443468506
0.19879447133139322 -0.49107411366040826 -1.1065854223497271 -0.2401357317690078 0.3074317519847812 -0.2610388030484326 0.5611826305559837 -0.004005418763593824
-0.24575452664353295 -0.2836036354552104 0.37678415025510725 -0.2158834472364198 -0.5896828811360805 0.07120754376773708 1.1622078646502352 0.26877254631882325
0.006401314998080105 0.2230843991730014 -0.21151695172682364 -0.6651835993005957 -0.2602348479010689 0.7515685328975972 0.6469538608023468 -0.360065999572686
-0.2502497387531348 -0.18841562652178623 -1.6289144007286926 -0.37808864192542546 -0.19591185309508835 0.43179975239832963 0.7554819765368129 0.5534075505792985
0.30287672254023557 -0.33454588372808874 -0.8113834431589849 0.3711721556536263 0.1450486812998168 -0.5599479955636535 -0.8522301137589072 0.00417801877008439
-0.4627107299850929 0.43310701982775407 1.0182522747494491 -0.4437886768060042 1.107323644319336 -0.6956316762392417 0.3217544681922003 0.13455869814198476
0.17518035111820376 0.7500875881475951 0.7456335631122113 -0.22424679970112182 0.648472383141781 0.6432290446579435 0.344134796361769 0.002015214853657883
0.8469828456340258 -0.35213526974021 0.7510888859579523 0.23287844252914 0.26285071389817816 -0.5673520408080414 -0.749832744153931 -0.024327856020314283
-0.267285658213425 0.3873159874626346 1.0566062735839628 0.36417714317851224 1.1359015166378092 0.43179690264668064 1.0219347915348924 0.22255990666619713
-0.8315127981760408 -0.010834571538147002 -1.3412812550306452 0.15294596167771476 0.424610560888092 0.5877310521575456 0.09301958447754438 -0.057613349027456455
0.4263749296137971 -0.6255406280591014 -1.2453609744780405 -0.052303557242434975 -0.7582464813968695 -0.3323662976147243 -0.2048883490165458 -0.05713439321160228
-0.1430811731459598 0.5282095271172994 0.008192247068439814 0.3280845339983324 -0.18885753959873725 -0.552415473827351 -1.3029657227893168 0.24625080725078513
-0.7494731057281531 0.5078400257287804 1.3690735585807283 0.15866017096752366 -0.1312829480481298 -0.06468779226002934 1.5655781850459225 0.06431184277087755
-0.13864629332705816 0.5527176613231006 0.3985472803721544 -0.36562243035877723 -0.47495207997078176 0.3137599511166539 1.1381766526263355 0.42169959332058204
0.1391327342473084 -0.557435167196865 -0.7959499358636144 0.03757290138054869 -0.4202634563409682 0.2151751840098994 1.300514452098126 0.4072537471139227
0.014904930681843287 0.2751075503646027 0.8824442060383179 0.12920682869904332 0.02197268306615001 -0.07717535811434043 0.6781874810803321 0.2718506643633783
-0.3100339884664943 0.10745254597185137 1.1799514018091706 0.18260214369663028 -0.04111183330351444 -0.17541569475224955 -0.36494099943793695 -0.326076467728792
-0.04720850239928578 0.047950340535886024 -1.3048198789883754 -0.08578983798182477 0.2462365804699705 -0.4014708105616908 0.7623567275230629 0.45490920546432795
0.26535243727443497 -0.02458039830444565 1.4931976809162086 0.2676924011287674 0.48351833353323354 0.2291844413623961 -1.3101869840502312 -0.45976578818126335
-0.4780335100770488 -0.1938712119918039 -0.2992523506788254 0.005510509655671689 -0.25171094763275664 -0.15082222508996854 -1.3424885436430973 -0.3443419442886448
-0.011838266238113793 -0.47512018011369206 -0.037491814156462085 0.5249844453687447 0.17297226190567017 -0.0678400993347168 -0.0062795281410217285 0.07465189695358276
-0.12746293637471232 -0.17544172002679706 -1.227424305975946 -0.44066248045620454 0.1746773638150452 0.3385775553953972 0.8133161734117896 0.10910145935850546
0.5930304542005619 -0.09715339979374372 -1.3817701590312648 -0.396540761773814 -0.4008858127844083 -0.14097714397627634 -0.8054957005990265 -0.4030541581790712
-0.18587721997884238 -0.4855418097204748 -1.2912279776853544 -0.5618981395503977 0.27087903022766113 -0.3688228726387024 0.09307372570037842 -0.2734646201133728
-0.29447028943632214 0.4297324227136592 1.2007868542526827 0.42766527932113596 0.11423030552836154 0.1392464597942206 0.6655775701761243 -0.001922673741791183
0.6370986048543386 0.2618221652097106 -0.16618929676433938 0.05147917183614251 0.48654438670076694 -0.2079858504772678 -1.2662593061203087 -0.2878684991003816
00000000: 0552 dbe3 e241 b93f a67b 5938 bd7e debf
00000010: 479b ac22 a1aa c13f 1a8d f2d0 9225 c53f
00000020: 8d76 cc74 7c23 cabf d16e 4a27 3057 9fbf
00000030: 08fc 3a7a bc33 e83f 74bb 9910 605d c63f
00000040: a9ac b38b d51a f73f d3db e498 de34 9a3f
00000050: d59a 4ddb 2846 c63f 4baa eee9 48ba c5bf
00000060: 9e5f ceca 4012 aebf c2f9 7832 7476 cfbf
00000070: a2fc 58a2 5ba1 f1bf 9120 d6b7 c1db dcbf
00000080: 39ad 1b03 0803 d0bf 917c 4d9c 0256 983f
00000090: ef05 88a3 7315 cfbf 6dac 5a96 bb19 c13f
000000a0: 9b06 869f 79e2 b1bf ee4c 95c2 2aba 7abf
000000b0: a836 1389 977f e73f 2cc9 0de1 f025 b83f
000000c0: cf44 240c fc34 bc3f d4a2 bb52 0594 c7bf
000000d0: d7e5 11d3 b0e4 e0bf b0eb 6cb9 b6e6 d33f
000000e0: 717c a53a 7496 c0bf 8912 581e deb8 b5bf
000000f0: c934 3c6e 51b8 db3f bd4b a24b e78d c2bf
00000100: dd08 422d 3bc7 dabf 161b 5baf 3dd9 bfbf
00000110: 8a9c 8655 8def cf3f dc54 52e4 e8b9 e03f
00000120: a063 eca3 0e8c d23f 8f8c f4d4 20c9 dabf
00000130: b01c 7056 789f f7bf 000e 2da6 7eda e1bf
00000140: 870c c888 b417 9b3f e0d1 b50c 6bcf d2bf
00000150: b513 e074 4593 c5bf e2c8 bf01 2c77 d93f
00000160: 541b c19a 9a72 cbbf a5cd 50d6 383a d53f
00000170: a48d 7f2c 26c2 e03f 0b0f 7c3e 9966 e2bf
00000180: 8a39 7fe4 1872 c93f 5d5a 851e c26d dfbf
00000190: 0e8f 73ea 92b4 f1bf e742 4685 c4bc cebf
000001a0: 1db4 213a f6ac d33f c51e 8518 dcb4 d0bf
000001b0: 4647 aa46 35f5 e13f f0ef 8a69 fc67 70bf
000001c0: 5d93 6363 e274 cfbf 2ea3 d3dc 8f26 d2bf
000001d0: 28cc bf44 3b1d d83f b367 d09c 11a2 cbbf
000001e0: 59b2 2fa2 aede e2bf d0fe b557 a83a b23f
000001f0: 633a 1d46 6798 f23f 9f20 20c4 9133 d13f
00000200: ba22 17e9 4338 7a3f a111 5993 078e cc3f
00000210: 51b0 1bcb fc12 cbbf b09c 9a1d 2f49 e5bf
00000220: 9eef 4010 b0a7 d0bf a2ee af73 d90c e83f
00000230: 3258 4595 d8b3 e43f 373d 2443 520b d7bf
00000240: 97be f17a 1704 d0bf b8b3 fbd4 001e c8bf
00000250: 8fcf f18b 0810 fabf acc2 03b4 9a32 d8bf
00000260: ba98 f8bc a313 c9bf b730 be6d 9ba2 db3f
00000270: 792d be89 e82c e83f 271f 63c0 83b5 e13f
00000280: 28eb 810c 5562 d33f 67e8 6723 3369 d5bf
00000290: 6547 1c69 daf6 e9bf 1df6 6ddb 48c1 d73f
000002a0: a65c 4187 f490 c23f 3c03 0d0f 18eb e1bf
000002b0: 0459 6816 7845 ebbf ff62 ac5f f81c 713f
000002c0: 2ad5 3277 0d9d ddbf ad01 7581 06b8 db3f
000002d0: 1b06 b2e5 c24a f03f b8e1 4d9f 0867 dcbf
000002e0: 7d06 67ff 98b7 f13f 654b 705c 9d42 e6bf
000002f0: 468d 8e0d a097 d43f adc1 f42b 3839 c13f
00000300: 792c 7a4b 4f6c c63f 8f57 87af b700 e83f
00000310: a4bd 0beb 3adc e73f 3478 797f 1eb4 ccbf
00000320: 0d80 be27 49c0 e43f 0595 d413 5595 e43f
00000330: d285 f2f3 4d06 d63f 430a 823c 3682 603f
00000340: 52ad c8c4 7b1a eb3f 8b59 d35e 6289 d6bf
00000350: e682 328f eb08 e83f c393 4df7 f5ce cd3f
00000360: 4011 fbcc 8bd2 d03f 53dc 9277 bf27 e2bf
00000370: e08d 333d a1fe e7bf 9fc8 f4c7 66e9 98bf
00000380: 0adb 2d4e 351b d1bf 74ad d7fe c8c9 d83f
00000390: 2faa dcfa dbe7 f03f 3ec1 f9a5 ad4e d73f
000003a0: a3fa 9611 a72c f23f f56b d879 8fa2 db3f
000003b0: 4f97 c44b d859 f03f ce1c 44d0 d77c cc3f
000003c0: b0e3 4bba c09b eabf e94e 6193 6f30 86bf
000003d0: e582 5155 e375 f5bf d303 bbb7 bb93 c33f
000003e0: 923c 23c6 d12c db3f d087 fb59 b1ce e23f
000003f0: b4f3 37a9 21d0 b73f 679c c533 7f7f adbf
00000400: c8a2 a112 ba49 db3f 16a9 7ac7 6d04 e4bf
00000410: e590 11a1 ffec f3bf b235 a427 88c7 aabf
00000420: 1603 fd1f 8e43 e8bf df0f a34a 7d45 d5bf
00000430: 7ec2 2d0b c839 cabf 6e2a a41c b840 adbf
00000440: 30e8 aadf 7b50 c2bf 0ff1 8caa 17e7 e03f
00000450: 4be8 eac9 18c7 803f c228 f645 56ff d43f
00000460: 2efd 16de 7b2c c8bf f491 3c37 63ad e1bf
00000470: a006 f395 f2d8 f4bf 7ebb e07d 2585 cf3f
00000480: ddaf ca05 affb e7bf 6d5b c3b9 3940 e03f
00000490: d7c2 feac b9e7 f53f 36dc bdfa f94e c43f
000004a0: ccd0 3130 e1cd c0bf 830f 3510 618f b0bf
000004b0: 02a7 01b6 9b0c f93f 2148 72ad bd76 b03f
000004c0: 3d92 c667 29bf c1bf 00bd e9f2 dcaf e13f
000004d0: ddeb c673 cc81 d93f 91cc 449f 5b66 d7bf
000004e0: 5b11 a968 9d65 debf 2ecc 359e a414 d43f
000004f0: 239d c1b8 f835 f23f fc18 834a 20fd da3f
00000500: 8397 b2f7 19cf c13f c706 9846 82d6 e1bf
00000510: 6033 f9ff 6b78 e9bf 6f63 4a5d c13c a33f
00000520: 740e 2cb2 98e5 dabf c7dc 1d45 dc8a cb3f
00000530: f9c9 fb3d e8ce f43f b2c6 4105 7210 da3f
00000540: 400e 9fee 7986 8e3f 8bb6 ecb2 5c9b d13f
00000550: 1b56 afa1 fb3c ec3f 7854 d76f d989 c03f
00000560: ccac b2cc 0180 963f 827e 28a7 c3c1 b3bf
00000570: 1e7e 793b b6b3 e53f 918a 3554 0066 d13f
00000580: 922b 47cc 98d7 d3bf 8f2f d292 0282 bb3f
00000590: 633c 9ab8 14e1 f23f 6fa2 adcd 815f c73f
000005a0: 33ce 0837 9c0c a5bf 7e40 1580 0574 c6bf
000005b0: 358d 637e 315b d7bf adfb 38d5 6fde d4bf
000005c0: d3cf cb7b b62b a8bf 160d de70 f28c a83f
000005d0: dfcf 36cf 8ae0 f4bf 1409 76a4 52f6 b5bf
000005e0: 4244 1926 ae84 cf3f 074f 6aa0 b2b1 d9bf
000005f0: c21b 93ef 3965 e83f af97 0780 3b1d dd3f
00000600: 597c 00ca 88fb d03f f369 5c9b 9a2b 99bf
00000610: 76f8 5f40 23e4 f73f d916 0f4f df21 d13f
00000620: 87aa 62e1 f6f1 de3f 93a6 3370 ea55 cd3f
00000630: f73f 82a0 86f6 f4bf 60b9 037c cd6c ddbf
00000640: 9d12 0bdd 1998 debf d401 9299 c5d0 c8bf
00000650: dcaa da54 f326 d3bf 8a20 162c 3092 763f
00000660: d52e 083c 081c d0bf 1bbc 2286 244e c3bf
00000670: 753a 6344 d57a f5bf 1317 57cb b209 d6bf
00000680: 001d ac32 a93e 88bf 0a82 d078 5e68 debf
00000690: d1e4 5687 2032 a3bf 028f f82d accc e03f
000006a0: 0000 0080 f423 c63f 0000 0000 f85d b1bf
000006b0: 0000 0000 90b8 79bf 0000 0000 631c b33f
000006c0: fd3b 979b b450 c0bf 113e efd0 df74 c6bf
000006d0: 08b7 47ab 87a3 f3bf 858d 8867 d033 dcbf
000006e0: 51f3 77ee d35b c63f 914d e531 41ab d53f
000006f0: 6b91 c3a3 af06 ea3f e801 e4bf 12ee bb3f
00000700: 9d59 ca00 1bfa e23f 1131 cf92 0bdf b8bf
00000710: 4b0c ba06 bb1b f6bf 855d d680 ec60 d9bf
00000720: efb8 d5f7 1ca8 d9bf 9748 6eff 890b c2bf
00000730: 9186 64eb 9ec6 e9bf c856 f9aa a3cb d9bf
00000740: 12b5 7022 d3ca c7bf 1ac4 65f4 1d13 dfbf
00000750: c96b fdaa dea8 f4bf a4ab a1ce 11fb e1bf
00000760: 0000 0000 1556 d13f 0000 0040 cb9a d7bf
00000770: 0000 0000 aed3 b73f 0000 00c0 7180 d1bf
00000780: 3a73 b1e9 99d8 d2bf 4081 656b bc80 db3f
00000790: 3cb6 c746 6c36 f33f 3c6a 1431 de5e db3f
000007a0: afd6 7482 323e bd3f c531 73f7 d3d2 c13f
000007b0: 7371 1b55 694c e53f 3c37 e135 4780 5fbf
000007c0: cca6 059d 1c63 e43f 3464 3cc1 b1c1 d03f
000007d0: 5d27 46dd b045 c5bf 243c ec5e 7a5b aa3f
000007e0: b2a8 3b11 8b23 df3f 7851 eac4 479f cabf
000007f0: 95ad 401e 9942 f4bf dad2 4bff 6f6c d2bf

feature_layer.0.bias f8 [64]
0.17655097209147308 0.39850867391457806 0.2745262965724011 -0.31951558094052956 0.5480448623634963 0.505213631045178 0.5066783614462648 -0.48903356838892265
0.009159237275165195 -0.26714648350786807 0.351201114462102 0.6048917434568283 0.44731800971397956 0.40373478906391247 0.6173716912971539 -0.29395014216786775
0.02740528125116612 0.42223505630665825 0.49851233177104587 0.5205545365425345 0.37757657532881406 -0.05115061116007003 -0.07435068544505971 0.11315587757177815
0.26677459178501917 0.44849468058843334 -0.1558454014347801 -0.12965691391758857 0.22108466853302983 -0.035477764091444555 -0.270566335864504 0.12119991219228872
0.02914911136247732 -0.07483398690152747 0.6268518834739016 -0.31427507668045085 0.34205347884839116 0.4630086022626021 0.38001102048794455 -0.3419894278776157
0.15081103138568003 -0.3685628228294829 0.5007022113745753 0.5007918403418367 0.6630565487789538 0.636434417567257 0.35637417222424866 -0.0551882934860263
-0.3431267559465065 -0.2676041381281512 0.4242763878076172 0.48186018488071614 0.5897104589616851 -0.39358699321746826 -0.44770076725994 -0.7172723901475652
-0.37190342502175583 0.6603929405261156 0.5311358466826669 -0.45060962438583374 0.22190389379322015 0.46802347671970257 0.5677200580839583 0.4798752398965782
00000000: 88dd 9ae5 3899 c63f 11ab 6886 2a81 d93f
00000010: cfe8 6abe d691 d13f d2ed ac7a f172 d4bf
00000020: f9f1 1261 9589 e13f 6ea3 dac6 b52a e03f
00000030: 1715 008a b536 e03f 401a b873 534c dfbf
00000040: f7d3 6c04 14c2 823f b417 7a90 ed18 d1bf
00000050: 26be 3b3d 147a d63f 5b8f f8ed 455b e33f
00000060: d988 a8b7 dba0 dc3f 985d d270 cad6 d93f
00000070: 961e f346 82c1 e33f a6fe d041 14d0 d2bf
00000080: d883 d84a 2110 9c3f caf4 832f e605 db3f
00000090: 7dff 6644 a0e7 df3f 0782 c7fc 61a8 e03f
000000a0: cc77 b1f0 362a d83f 11b1 34b4 6930 aabf
000000b0: 7ef5 6b82 a508 b3bf 195e 8599 c8f7 bc3f
000000c0: c2b4 c7bc d512 d13f 98aa 6308 23b4 dc3f
000000d0: c87a 32fb bdf2 c3bf 63f8 7c06 9998 c0bf
000000e0: d688 7f9e 804c cc3f 0213 0439 242a a2bf
000000f0: 33f1 fb76 f550 d1bf 05da 241b f506 bf3f
00000100: 7d86 09c0 43d9 9d3f fb10 5ff6 5128 b3bf
00000110: ea9a 5eae 2b0f e43f 6296 1236 151d d4bf
00000120: 71c2 4846 34e4 d53f d402 1fd5 eea1 dd3f
00000130: 3461 47be 1952 d83f 9df9 13a0 27e3 d5bf
00000140: 26b9 d69f c64d c33f 95bd a485 8896 d7bf
00000150: 1170 dca4 c005 e03f 21e6 0b9c 7c06 e03f
00000160: 7fef 0c5e c237 e53f 7301 30b6 ab5d e43f
00000170: ede6 b59d d5ce d63f 3400 4ad7 a341 acbf
00000180: 770f cbec c9f5 d5bf 2238 621b 6d20 d1bf
00000190: 9351 8626 5827 db3f fea8 d319 ccd6 de3f
000001a0: d22f eb77 e8de e23f 0000 0080 8730 d9bf
000001b0: 9ca2 711e 21a7 dcbf cf3d 403a e5f3 e6bf
000001c0: fb48 ef05 44cd d7bf c134 4260 f021 e53f
000001d0: c787 679a 10ff e03f 0000 00c0 c9d6 dcbf
000001e0: 4335 59c7 5867 cc3f a25d 91bd 18f4 dd3f
000001f0: 4e1f 5841 c32a e23f 7405 61a3 46b6 de3f

advantage_layer.0.weight f8 [64, 64]
0.08629611134529114 -0.05184020929008168 -0.03885580945634551 0.010712604671492074 -0.04922908816082658 -0.11256462058272297 -0.08009867293595016 0.0034227222204208374
-0.10374380648136139 -0.07463077029828426 -0.08019292671524003 0.013026586874549715 -0.05417126822050615 0.09221036254783918 0.02473812153890125 -0.1217394769191742
-0.13728941127654792 0.0012600137555929445 -0.14750364575960664 -0.12526500643268143 -0.059338106133646304 0.028532102704048157 -0.06759331352045941 -0.16793491521765586
0.04700607601121676 0.018184860801570345 -0.031768426299095154 0.10854484140872955 0.0673941230960956 0.019353579835973526 -0.005875706672668457 -0.021267124855542496
0.09435915946960449 0.067690908908844 0.033229207908858194 -0.04816819727420807 0.09381440476438968 -0.12313526300301816 0.01853964505173617 -0.13317770000369847
0.08475805819034576 0.013528421521186829 -0.13087978634000721 -0.08972858923608765 0.06792025529608245 -0.12683736768430068 -0.14947236928885738 0.028326778049377548
-0.04408322824661359 0.09172244525287146 -0.1364931695381105 -0.009964958974948014 -0.028329251205891748 -0.05423042178153992 -0.09140423465256003 0.04080298203943128
-0.1060476869350563 -0.13261294211166197 0.029168775776121324 0.0036180615425109863 -0.14803582233070564 -0.08943968631479826 -0.059670237709128826 -0.06093375391092857
-0.014685248251555953 0.09716049140940507 -0.2041864199399477 -1.0511267070640664 -0.17956227163740363 0.0006985007886688569 -0.1697282825564113 0.027331843972206116
0.06532005001981195 -0.809178923529747 0.03453571822572675 0.21883576880565617 -0.5366236529744418 0.03298904851329379 0.11476732175841577 1.1214642040282548
0.3358957873006627 0.34202988450630306 0.10301611993551141 0.16780434025737734 -0.34495098347962483 -1.0048578029069049 0.40788094914694917 0.0818853631566425
0.218667184125512 -0.0746441041047037 0.285320946522493 -0.9683431914284835 0.32791438526271377 -1.4414805614760973 -0.6711291800930596 0.14595338552746925
-1.188498126896904 -0.21345450720040718 0.13696553348728147 -0.6530955009561015 0.5891868762617607 0.27953161111644664 0.08910432882926957 1.2946831049334044
-0.5847737227489672 1.1237806345896972 0.2373920544800437 0.0556898497313745 0.26421577393279505 -0.004587194928970395 -0.40017063544822257 0.3500106564450652
0.8983220630367693 -0.27921246564648994 -0.17989964408430958 0.02038242037289432 -0.0014512001664708615 -0.021174192428588867 -0.4940410946441326 0.5307107692377587
-0.6510747515978965 -0.09378513007663186 -0.36835229657396085 -0.06721782684326172 0.5728349078426308 0.1258755556187151 -0.24060605991926529 -0.8217389538843298
-0.07586884498596191 0.026675283908843994 0.0016456316013413652 -0.0798296332359314 -0.008153436700633294 -0.011168443775115522 0.02315450373820476 -0.08044874668121338
-0.0004867464303970337 0.11100377142429352 -0.02130991220474243 0.003276645736833356 -0.11650297711643917 -0.07713815825309987 0.03164755233735672 0.0038906484842300415
0.004777118563652039 -0.11412658656220749 -0.1175988477838721 -0.012066250898588975 0.012514282327388682 -0.02487336016372482 -0.04024246335029602 0.1075761616230011
0.013614662227272015 0.09278859760786286 -0.08815853297710419 -0.11460980772972107 0.09698566414811621 -0.0534151505978702 0.006953135132789612 0.04928456424293409
0.07423911577569028 -0.08859951794147491 -0.05375118592628942 0.0019142478704452515 -0.1282215865843395 0.09923304617404938 -0.11331848423513391 0.02867664396762848
-0.05506129562854767 -0.00030919909477233887 -0.12589499024361886 -0.019038308702152545 -0.12933021197000516 -0.03229558367887723 0.02400088943200522 -0.07964339852333069
-0.008755326271057129 -0.008770601387642093 0.07386332750320435 -0.07710513472557068 -0.03102685511112213 0.020780816674232483 -0.0771360695362091 0.03931494057178497
-0.03409697115421295 -0.1117673259338912 0.11963239312171936 0.012280970811843872 -0.026453591990234476 0.0285541200733076 -0.030900235230652846 -0.10014038812506819
-0.13885496215362775 -0.02704474498885357 -0.40313993387517466 -0.4292292424064361 -0.030202671924298666 0.060532142217317925 -0.006903522327832133 -0.12581968455110729
0.1149118829886222 -2.163186012130082 -0.03088642853975414 0.11297697018045243 0.03373747578755899 -0.08902542552197996 0.10563285157048301 0.8918901481607386
0.09838978159545199 0.14102851082376833 -0.1534086695851604 -0.023804048910920323 -0.14009198082749216 -0.8781440713086828 -0.672674106349726 -0.37594121621207843
-0.019265897804926494 0.07771437298427561 -0.02457214193917041 -0.7733703861816648 0.14744428248173874 0.23127779259435152 -0.04877493696901937 -0.048688103038413734
-1.1167888094195833 0.29285974162752887 0.08353419196470925 -0.035765918340657336 0.29103817742058286 0.08506517033658396 -0.05344022960986122 1.2821620872540989
-0.5464963640478085 -0.5587531709670222 0.11119791784553497 -0.07968363031904871 0.1540167688802867 0.07787793649622347 0.012111932529208816 -0.2967824770396074
0.21161814797426232 -0.7486301283064127 0.07942048288097421 -0.009551342842581457 -0.10361091314697633 -0.08211828768253326 -0.2606992516007509 -0.2836828545406194
-1.2617559568271435 0.009481363482305378 0.12898693445665563 -0.07691211998462677 0.11495236443693246 0.03424696724860142 -0.0786574327580322 -0.11986773108976151
00000000: 0000 0080 8017 b63f 8c92 09c7 cc8a aabf
00000010: 14cd bf9d e8e4 a3bf 9295 c075 7df0 853f
00000020: fc46 5317 8e34 a9bf c7e5 16f4 08d1 bcbf
00000030: 0681 b6bc 5881 b4bf 0000 0000 f809 6c3f
00000040: 0000 0040 f48e babf e1d7 b48d 001b b3bf
00000050: 88cb 9c0d 8687 b4bf bf69 d6e4 aead 8a3f
00000060: 56a3 c722 56bc abbf 2eca 7e2b 199b b73f
00000070: 6d6e e53b f354 993f 0000 0080 512a bfbf
00000080: 008b c20d b392 c1bf 56a8 db77 e1a4 543f
00000090: 1105 4a43 66e1 c2bf 9715 fb08 af08 c0bf
000000a0: 0e4d 8072 9061 aebf 0000 0000 8537 9d3f
000000b0: 62a7 ff9e cb4d b1bf d6b1 5b2c e47e c5bf
000000c0: 20e9 5c2e 2e11 a83f 2342 b359 0d9f 923f
000000d0: 0000 0080 f343 a0bf 0000 0040 98c9 bb3f
000000e0: 98ec a3c2 bd40 b13f e1f9 d2c1 6cd1 933f
000000f0: 0000 0000 2011 78bf c021 f096 0cc7 95bf
00000100: 0000 0000 ec27 b83f 0000 0000 3154 b13f
00000110: d026 7b32 6b03 a13f 0000 0080 80a9 a8bf
00000120: a454 5b88 3804 b83f 0a13 95e7 ca85 bfbf
00000130: 12e5 b484 0efc 923f e143 0985 f70b c1bf
00000140: 0000 0040 b4b2 b53f 0000 0000 cab4 8b3f
00000150: 95d6 0439 abc0 c0bf ca03 49ec 73f8 b6bf
00000160: 9e8e 3bcb 3863 b13f b9b1 0ef5 343c c0bf
00000170: da29 e01c e921 c3bf dee1 4ae5 b101 9d3f
00000180: 301c 3eaf 1392 a6bf 6a94 ab46 1f7b b73f
00000190: a393 a5b1 9b78 c1bf 1421 3a27 8268 84bf
000001a0: d042 ccdd 5702 9dbf 0000 0000 17c4 abbf
000001b0: ac74 8c96 4466 b7bf 7894 e0e2 20e4 a43f
000001c0: e9d7 33f3 f025 bbbf d0ad b2fc 75f9 c0bf
000001d0: 6358 1768 6bde 9d3f 0000 0000 a0a3 6d3f
000001e0: 17ff c57b d6f2 c2bf 38c2 afef 84e5 b6bf
000001f0: b0b0 02ef 188d aebf ed36 8a80 b532 afbf
00000200: 4fe7 caa7 4c13 8ebf 2f12 118d 82df b83f
00000210: 81f6 f6d5 c722 cabf 6aad ec3c 6ad1 f0bf
00000220: 5699 2382 e5fb c6bf 7e78 9305 73e3 463f
00000230: c19c 6407 a8b9 c5bf 0000 0000 e1fc 9b3f
00000240: 74b1 9b96 d0b8 b03f 2787 a532 cbe4 e9bf
00000250: 6e90 a568 aaae a13f 498f 1b7b cf02 cc3f
00000260: 0521 f95d 052c e1bf 2444 fbc8 f0e3 a03f
00000270: 7116 9a25 6461 bd3f f6f9 fe72 84f1 f13f
00000280: 6083 540b 517f d53f 0164 0d50 d1e3 d53f
00000290: 3876 15b2 435f ba3f 2422 c4d4 9c7a c53f
000002a0: 5227 314a ad13 d6bf 60d9 89c6 e513 f0bf
000002b0: 72d8 4fb2 b81a da3f 8e63 c76c 70f6 b43f
000002c0: 9c84 434a 49fd cb3f 420b f841 e01b b3bf
000002d0: 4362 8bc9 b242 d23f d6aa 4fdc aafc eebf
000002e0: dcd7 259e 8cfc d43f bdc0 d5eb 4d10 f7bf
000002f0: f382 fce6 e379 e5bf e75c cabc 99ae c23f
00000300: 4512 a69c 1604 f3bf 9505 ce2f 7a52 cbbf
00000310: 90e7 802b 1688 c13f 9cad 3889 28e6 e4bf
00000320: 68da 986f 9eda e23f 7e5f fc8d d8e3 d13f
00000330: 49f5 4092 8acf b63f 9df6 a5a1 05b7 f43f
00000340: 258b d861 77b6 e2bf d40d 1767 01fb f13f
00000350: 8a38 29e3 dc62 ce3f 247d a146 6183 ac3f
00000360: 5c3c 0847 e9e8 d03f e672 34c3 05ca 72bf
00000370: 3775 044c 659c d9bf 09b7 ab18 9366 d63f
00000380: e394 40e9 0dbf ec3f a694 25f6 9dde d1bf
00000390: 2cbb f397 f306 c7bf ebdc a813 21df 943f
000003a0: b2f8 5050 c6c6 57bf 0000 0000 b0ae 95bf
000003b0: 0e1a 188a 5e9e dfbf 8f5b b026 95fb e03f
000003c0: 42a8 abb7 9ad5 e4bf ccbd 8762 4d02 b8bf
000003d0: 1244 cc82 1593 d7bf 0000 0000 3035 b1bf
000003e0: e91e 66df a954 e23f 5cc5 5fb1 b01c c03f
000003f0: f34c 49eb 2dcc cebf d209 997d af4b eabf
00000400: 0000 0000 246c b3bf 0000 0000 c450 9b3f
00000410: 5778 2d7a 47f6 5a3f 0000 0000 b76f b4bf
00000420: 8474 d5bf bfb2 80bf 4d37 1726 7bdf 86bf
00000430: ee27 3e71 d0b5 973f 0000 0000 4a98 b4bf
00000440: 0000 0000 40e6 3fbf 0000 0040 be6a bc3f
00000450: 0000 0000 44d2 95bf a707 f8c8 9fd7 6a3f
00000460: ce0b 9a9c 23d3 bdbf 2f82 f88a 53bf b3bf
00000470: 8025 93a4 1b34 a03f 0000 0000 48df 6f3f
00000480: 0000 0000 2c91 733f 0588 e364 6637 bdbf
00000490: 616d 4745 f51a bebf 1c4a f5c7 30b6 88bf
000004a0: 6de2 a18a 16a1 893f cf80 c7f1 6678 99bf
000004b0: 0000 0000 a99a a4bf 0000 0080 1c8a bb3f
000004c0: b506 1908 01e2 8b3f a1df 2a58 fec0 b73f
000004d0: 0000 00c0 8e91 b6bf 0000 0080 1157 bdbf
000004e0: 846e b26f 0dd4 b83f 6587 db09 3b59 abbf
000004f0: 0000 0000 e47a 7c3f 68f5 3d8f d33b a93f
00000500: 1e2e 57ae 5501 b33f 0000 0040 75ae b6bf
00000510: e968 5983 4685 abbf 0000 0000 f05c 5f3f
00000520: 29af 82a0 9069 c0bf 0000 0040 5667 b93f
00000530: 287b d2af 7002 bdbf 0000 0000 695d 9d3f
00000540: 0000 0080 fe30 acbf 0000 0000 8043 34bf
00000550: 71cd e9b8 531d c0bf abd2 fc44 c77e 93bf
00000560: b4e0 6573 e48d c0bf 057a 69f7 0b89 a0bf
00000570: ccd2 bd6c b093 983f 0000 0080 8263 b4bf
00000580: 0000 0000 50ee 81bf 0b68 0231 52f6 81bf
00000590: 0000 0000 b5e8 b23f 0000 0080 29bd b3bf
000005a0: 0000 0000 81c5 9fbf 0000 0000 9147 953f
000005b0: 0000 0080 30bf b3bf 0000 0080 1621 a43f
000005c0: 0000 0080 2875 a1bf 53be a591 c89c bcbf
000005d0: 0000 0080 3aa0 be3f 0000 0000 c426 893f
000005e0: c8d1 d681 a616 9bbf 200e 868f 4a3d 9d3f
000005f0: 3577 04af 4fa4 9fbf 9f83 01ec cca2 b9bf
00000600: b227 abd8 ffc5 c1bf c2ec 051d 9eb1 9bbf
00000610: 8c26 ed6f 0bcd d9bf 08d7 a7ed 7d78 dbbf
00000620: 34ae aa00 73ed 9ebf 5c43 5ca6 11fe ae3f
00000630: b100 012a de46 7cbf 8186 2b03 dc1a c0bf
00000640: 10a0 5b7b dd6a bd3f 5d1b ca77 344e 01c0
00000650: 8dba df21 b1a0 9fbf 534f 2008 0fec bc3f
00000660: fa76 50d6 0946 a13f 8d1f 21cb 5eca b6bf
00000670: e3e1 e02a c10a bb3f ee32 3f35 5d8a ec3f
00000680: 618a 369e 1230 b93f 5855 e5e4 380d c23f
00000690: df43 6531 e5a2 c3bf 75d2 56ae 1660 98bf
000006a0: 0300 0bb6 88ee c1bf 844e 6e98 c119 ecbf
000006b0: 4f6b f4d8 8b86 e5bf 9e5b 36bf 6b0f d8bf
000006c0: 413e 0084 70ba 93bf 3688 65d2 16e5 b33f
000006d0: b3eb 1588 7029 99bf 640b 8b40 73bf e8bf
000006e0: 66e1 9e49 74df c23f 83ed bdbd 829a cd3f
000006f0: e2f4 4a4e 07f9 a8bf 0d2f 82a4 a5ed a8bf
00000700: 27ef 4ff1 5dde f1bf 5bbc 26c9 36be d23f
00000710: 0112 962e 7f62 b53f 7f47 2b13 e94f a2bf
00000720: 952a 7a97 5ea0 d23f f5d1 9fbc d4c6 b53f
00000730: 981f ee8c 845c abbf d9d6 8e64 bc83 f43f
00000740: e3fb 5ef1 e57c e1bf 78de 7a54 4ee1 e1bf
00000750: 65a5 877c 7777 bc3f c232 3f7a 2566 b4bf
00000760: 982e b04c d2b6 c33f 73cc 54f6 ceef b33f
00000770: b5a0 d510 24ce 883f 934d 3aee 7bfe d2bf
00000780: d20f 65b0 4d16 cb3f de0a bc2b c7f4 e7bf
00000790: 4537 9b98 e654 b43f da58 2289 a78f 83bf
000007a0: f796 79ab 3e86 babf 0000 0040 b405 b5bf
000007b0: b4e1 ede9 4baf d0bf 5106 ac21 dc27 d2bf
000007c0: 3bb1 a103 2730 f4bf 5db9 9f10 f76a 833f
000007d0: 0723 8dd4 a482 c03f 0000 0040 83b0 b3bf
000007e0: 68c0 daa5 846d bd3f 5ecd a388 d188 a13f
000007f0: 1b77 48bd e422 b4bf cc51 e0d0 a6af bebf

advantage_layer.0.bias f8 [64]
-0.11750134518656372 -0.1317147954429968 0.003238177423674069 -0.09876008252211098 -0.13101349590165626 0.0870147902745384 0.05061236477751746 -0.0845356828327968
-0.14406591084179451 -0.1153995171068792 0.004599164254407385 -0.2014122631127665 -0.22282871910244312 0.031877817405273075 0.11781065705665482 -0.2047869326356606
-0.07998442649841309 0.13768059919439024 0.3670494887244284 0.13260547124070077 -0.011130183935165405 0.06985924205379804 -0.15335424799771974 0.13107804919488694
0.15667519790691328 -0.12435682495064634 0.08016339104354092 0.09491689364061472 -0.02466273307800293 -0.08197674299084606 0.08302903070926812 0.08681113987995964
-0.053201486206096944 -0.006707720618441492 0.10819717458592035 -0.02574145793914795 -0.07972277700901031 -0.10161573470382644 -0.05434463399784233 -0.07594235510470417
-0.04475504215261047 0.0007071964704270375 0.07791797283676663 0.24990576710437387 0.13122211686482255 -0.05711973635955431 -0.1443904674774781 0.07879161420447689
0.300432867259166 0.2679124275468304 -0.04048626124858856 0.028349233616197084 -0.042459738520672356 -0.2212290530182437 -0.06907086074352264 -0.22262454811486412
0.02216624973412876 -0.19228153829188502 0.21083724004674828 0.0646317370780839 -0.09002934684187713 0.33640915586417774 0.004433368848483488 0.3138044365304775
00000000: c6f2 cf72 9114 bebf 2cdb 69c9 07dc c0bf
00000010: 2e34 4444 f386 6a3f a72d 953c 5748 b9bf
00000020: 29ba 1ddc 0cc5 c0bf 5058 7fee 9946 b63f
00000030: e83d fc26 dde9 a93f e2a4 1c69 21a4 b5bf
00000040: c758 c473 c070 c2bf c5bf f29f d28a bdbf
00000050: ce5c fcc0 92d6 723f 3c95 8a85 e0c7 c9bf
00000060: bec8 93c6 a685 ccbf 916f 720e 4a52 a03f
00000070: ffb8 2dd7 d628 be3f a0be 284d 7536 cabf
00000080: 0000 0000 dc79 b4bf 14b3 6a93 849f c13f
00000090: ab6f 8523 bd7d d73f e8ee 1f51 37f9 c03f
000000a0: 0000 0000 6ccb 86bf e2c4 f197 4be2 b13f
000000b0: 2a2b edab 1ca1 c3bf 83fc 415f 2ac7 c03f
000000c0: eb60 8dd1 ee0d c43f 4e8a 3250 d9d5 bfbf
000000d0: e453 de86 9685 b43f d73b 063a 794c b83f
000000e0: 0000 0000 3041 99bf d4a3 2d86 6dfc b4bf
000000f0: 96cf 83fb 6341 b53f 2481 b63e 4139 b63f
00000100: d922 b5a6 393d abbf 7f96 fd0a 8e79 7bbf
00000110: b6ba 5d5e cfb2 bb3f 0000 0000 f85b 9abf
00000120: 0000 0040 b668 b4bf bfdb 4f21 7d03 babf
00000130: 97b7 7753 0fd3 abbf f950 8e4b f570 b3bf
00000140: ebcc c004 22ea a6bf 7da7 2ddb 642c 473f
00000150: 6ac2 1aa9 6ef2 b33f 21c5 6584 e9fc cf3f
00000160: 7420 39e6 e2cb c03f b8a8 3d4f cc3e adbf
00000170: f1bf d507 637b c2bf 2010 35ee af2b b43f
00000180: 5762 e1c6 4a3a d33f da5b a02a 7a25 d13f
00000190: 0000 0080 9dba a4bf 1530 fedc 9407 9d3f
000001a0: 979d af68 48bd a5bf 50b7 d1cd 3b51 ccbf
000001b0: 0000 00c0 a0ae b1bf d955 b810 f67e ccbf
000001c0: e971 bbd6 bfb2 963f b94a 4b73 ae9c c8bf
000001d0: bbcc 63f5 b6fc ca3f e8b6 089d b48b b03f
000001e0: f0b8 5dcc 290c b7bf 38be a044 ba87 d53f
000001f0: 340a 7263 b928 723f 2c3d 0f34 5f15 d43f

advantage_layer.2.weight f8 [2, 64]
-0.05565069533596216 -1.0830927002080741 -0.033601578834011915 -0.5078841096531302 -0.004105411694677365 -0.02183229739674653 -0.09679807281587201 -0.3039468362537156
-0.01069732465601466 0.033456936411955886 -0.06721572130760504 -0.6325990259344653 -0.3909620712277117 0.01635536829546861 -0.903256596589152 0.17023723309252645
0.12498533725738525 -1.3045884394328655 0.32054059022528797 -0.3960608505595598 -0.055521443486213684 -0.5055398810463225 0.01669089059722795 -0.317567529720789
-0.05677773303697546 -0.07825510263594868 0.24983874465183345 -0.08635485530929339 0.021107330918312073 -0.30205406910534854 -0.07107945888588625 0.055988442062213886
-1.5967911554143959 -0.2856392737012261 -0.3951155029748702 0.07027193903923035 0.0828816294670105 0.07227802405918643 -0.7154965409092444 -0.34675538858675475
-0.4133642273492001 0.016853139820391327 0.2823933905020925 -0.275488422575391 -0.07798458166088904 -0.4732371026652522 -0.020559893029698992 0.09117387165705157
0.49584425097248697 0.39551976055416643 0.10303984582424164 0.849688514575409 0.060502321100336535 -0.3101016843948298 0.07775655388832092 -0.39524464340419946
0.33384493821514144 -0.33933663514198104 0.621788353376356 0.2963438773217482 0.014280215266781467 0.4721019368282461 -1.2715973846323916 0.4407580898728845
-0.01778519523837937 -0.6524737906125425 -0.054925361812697235 0.4479176809890885 0.0002543221111873389 0.0155420738336933 0.6844060130748469 -0.39552660736216017
-0.013434005618982161 -0.097854839099484 -0.007898143380545966 0.29408247014552386 -0.40454334090120736 -0.015974029876244817 -0.21030960179753677 -1.455010048628372
0.04963529109954834 -0.08776666252256869 0.7631834716457031 -0.2672193582516991 0.05217091739177704 0.01895358281829821 0.07438866728152123 -0.4733775267360135
-0.26951475575630235 -0.07479028370330412 0.5961610164418821 -0.017332139341952865 -0.03671520948410034 -0.6374287636578527 0.07028955751083586 0.13864425375593126
0.10121191874519533 -0.31496350916583904 -0.21476786863154412 0.005254492163658142 0.1215764582157135 0.010372806225019966 -0.3828243562993275 -0.4273542334561069
-0.2544965044868711 0.6612895776495598 -0.06264368305775322 -0.5291162298818837 -0.32105495732146505 -0.6230879011614557 0.06415747152590866 -0.024149056709248582
0.5770038420198936 0.6833073885752811 -0.01982341706752777 -0.9948975053576584 0.034842067598355835 -0.34426958135243196 0.11487424373626709 -0.37570474180324037
-0.1016713483612845 -0.3970163258543198 0.016027950359467236 -0.26381312517351924 0.04375449376201945 0.6417500368008769 -0.4223914537605526 0.6142512736323991
00000000: 866b ef78 3f7e acbf 53e1 de02 5954 f1bf
00000010: 8d41 5fe4 3934 a1bf e3c8 232d 9640 e0bf
00000020: 75af 710f d6d0 70bf 6125 43ad 345b 96bf
00000030: f55b 0f2d c2c7 b8bf 0bac 5b6e dd73 d3bf
00000040: 6c10 6b9c 7ae8 85bf 5d6a 6d7f 4421 a13f
00000050: 1310 cbac 0c35 b1bf e9d6 fb4f 403e e4bf
00000060: 7f90 79c7 8505 d9bf eab4 c52f 76bf 903f
00000070: bfe4 c760 7ae7 ecbf b3d2 586a 55ca c53f
00000080: 0000 0000 0aff bf3f 4ea9 a120 98df f4bf
00000090: b7b8 03ae bc83 d43f ad45 189c 0f59 d9bf
000000a0: 0000 0080 4e6d acbf ae5d fdf8 612d e0bf
000000b0: 615b 06b5 6a17 913f e906 9bc2 0653 d4bf
000000c0: 06d5 1195 f811 adbf a607 91c2 8608 b4bf
000000d0: 2dd3 c64a b7fa cf3f 6d7b 670f 5a1b b6bf
000000e0: 0000 0000 299d 953f b798 1b97 da54 d3bf
000000f0: dd0e 556f 4332 b2bf 22ef 385f 84aa ac3f
00000100: 09c0 f0e1 748c f9bf 54ff bff2 e947 d2bf
00000110: aedb da88 9249 d9bf 0000 0080 57fd b13f
00000120: 0000 0000 bb37 b53f bcbf 8d05 d080 b23f
00000130: 1067 7300 59e5 e6bf d147 6c83 3d31 d6bf
00000140: 9a45 733b 8f74 dabf 5038 7411 f341 913f
00000150: eb08 34ba bb12 d23f e3d3 5831 9aa1 d1bf
00000160: fe64 d32b ccf6 b3bf 0cde cc45 8449 debf
00000170: 69f0 af10 a70d 95bf ee48 04bd 2b57 b73f
00000180: 5c88 7586 e9bb df3f 0f1f 201d 3250 d93f
00000190: 0000 00c0 d160 ba3f 246c bcf7 a530 eb3f
000001a0: b783 ea04 29fa ae3f 7b42 3abc b4d8 d3bf
000001b0: 0000 0080 dae7 b33f 25c6 5530 b04b d9bf
000001c0: 556d e428 b75d d53f 5f3f 9101 b1b7 d5bf
000001d0: de1f 59b0 b0e5 e33f 25df 5d4f 4cf7 d23f
000001e0: bec3 670c f23e 8d3f 8a8e c30a eb36 de3f
000001f0: d8cd ca7f 7658 f4bf d9e4 5c6b 6135 dc3f
00000200: 3675 9b3f 4836 92bf 5bb2 05b7 10e1 e4bf
00000210: 9eba 6951 2d1f acbf af7d c9eb aeaa dc3f
00000220: 0a76 7326 d1aa 303f f130 9fd6 85d4 8f3f
00000230: 6ff3 6a70 a7e6 e53f 345f d4d4 4e50 d9bf
00000240: 9b6e 4db6 4983 8bbf 4008 b0c5 030d b9bf
00000250: c804 26dc e62c 80bf e185 e647 3fd2 d23f
00000260: 940e bfc0 09e4 d9bf 557d 9dff 7e5b 90bf
00000270: 80aa e0ce 6ceb cabf 175d e39d b847 f7bf
00000280: 0000 0000 cc69 a93f 07a8 3641 e077 b6bf
00000290: fc1c 72be ff6b e83f 5d25 2339 1f1a d1bf
000002a0: 0000 0080 25b6 aa3f eaef 6269 9168 933f
000002b0: edca 2abd 220b b33f d685 ff40 d14b debf
000002c0: d6d0 70d1 ba3f d1bf e272 90be 7425 b3bf
000002d0: 7993 9844 c013 e33f 1cd8 922e 84bf 91bf
000002e0: 0000 0000 56cc a2bf 0b16 ae01 d165 e4bf
000002f0: d764 c216 7ffe b13f 847c d44b 18bf c13f
00000300: aadc f938 06e9 b93f 423e d3b4 5c28 d4bf
00000310: 8e86 0076 837d cbbf 0000 0000 bc85 753f
00000320: 0000 0080 a21f bf3f 249d 087c 563e 853f
00000330: 45be 9aba 3180 d8bf 7c12 2092 c559 dbbf
00000340: 5aea edb4 ab49 d0bf ac18 a6c2 4829 e53f
00000350: ceb6 089a 6a09 b0bf 2a04 e428 85ee e0bf
00000360: 0285 7a17 2a8c d4bf 09b2 c009 56f0 e3bf
00000370: b771 ffc1 9f6c b03f 3990 2ec3 87ba 98bf
00000380: 9389 e4c2 d076 e23f cd78 e174 a7dd e53f
00000390: 0000 0000 974c 94bf 9542 0c4b 33d6 efbf
000003a0: 9f4c b8c9 d1d6 a13f c5a4 3a48 8308 d6bf
000003b0: 0000 0000 6668 bd3f 87cf bfe6 8b0b d8bf
000003c0: 8ce5 262c 2207 babf b86e e129 b768 d9bf
000003d0: 5d9a 768a a169 903f 6d0d 3872 50e2 d0bf
000003e0: f095 852f fd66 a63f af87 885f 3789 e43f
000003f0: ebbb 002a 7608 dbbf 4ae1 7849 f2a7 e33f

advantage_layer.2.bias f8 [2]
0.17275713318036465 0.036907613938585195
00000000: 6b87 94de e71c c63f 4de2 ad05 8ee5 a23f

value_layer.0.weight f8 [64, 64]
-0.4083292224321519 -0.46404616077828675 0.21662493533418464 -0.7505549981706517 -0.15715656838111627 -0.22044214742447013 0.011758447487243357 0.029238075017929077
-0.3028029815737199 0.4688360017353761 -0.8697566594851343 -0.11200030659110864 0.060078358348938314 -0.006659896203043694 -0.3385938952908637 -0.03042490780353546
0.25125554669402256 0.010859324679622681 0.11191892752096924 0.07075236451763706 0.2022161446751284 -0.27524539763764316 -0.3409265788120478 -0.15302856185537628
0.1838879544930035 0.06784849829454143 0.11893396963976101 -0.3930771791095433 -0.34768104021810237 0.2564147774788138 0.030686810612678528 0.12661805144207774
-0.3388175379109189 -0.012770295143127441 -0.00024125679240899548 -0.09017267694631244 -0.4967375249046592 -1.000269928348806 0.01491678781671435 -0.14676450371886904
-0.555058033793365 0.06702795143466492 -0.0006121575870260853 -0.3224659043454828 -0.43767903753969684 0.040505382396122204 0.2743441907460186 -0.3851803866097576
-0.5351890619295683 0.24340125804864612 -0.45439189428897003 0.022578059676624105 -1.0047878067778253 0.08604907989501953 -0.11262982327337312 -0.0058778243320844175
0.35703175527303777 -0.00538716556965034 -0.0982632454353805 -0.05058273673057556 -0.3091106568058745 0.1095143717106388 0.251083119162162 0.07886121592112572
0.0007301953011583732 0.020035040534612428 -0.08602126697220845 -0.09893593192100525 -0.03232617413208666 -0.10611950452859246 -0.12421883553810216 -0.06551970541477203
0.03962071106175394 -0.10216531492724737 -0.12733892601421737 -0.12285768571932768 -0.04600879336946477 0.09574743240189833 0.09901763874605314 -0.10672752559185028
-0.08966952942428615 0.025342693026275485 -0.10867077996064457 0.04901997965467938 -0.027732491763979912 -0.0958080142736435 0.05413132672231671 -0.04992828352171761
0.018457654453433472 0.09153314170707813 0.004750216383414876 -0.08672727644443512 0.11164286042906871 0.019563719630241394 -0.06049470603466034 0.003201557864104358
0.10273366678362146 -0.06228046119213104 -0.13405606963959227 -0.08269491791725159 -0.058016691815612816 0.05501992304578661 0.052766413106870975 -0.006681627029260015
-0.12854165938380582 -0.040685415267944336 -0.020589245783726406 -0.08139069646847708 -0.06163801146240432 0.10032262152271254 -0.012855114721448836 -0.07935225646577315
-0.07132616639137268 0.008928465493851484 0.023921869944339154 -0.1350061836411818 -0.018492535292718264 -0.01249396800994873 0.05420427425187344 -0.09038956774488698
0.10565957587125571 0.0717730200933827 0.08940478842274954 0.0063683390617370605 0.055114923440499376 -0.10002506652342102 -0.07484950272465715 0.08996898438667604
0.04572051544795288 -0.08570041581537385 -0.04200805723667145 0.07443097366701683 0.04058642503238068 0.03736175460670079 -0.14576032665044367 -0.06549572944641113
-0.03099385893904057 0.07904547452926636 -0.07292075805054349 0.010696074738318751 -0.015006712779934848 0.02218603479479851 -0.06951984296781617 0.015766223492889413
0.032202603381457647 -0.11731020273488935 0.018474018185714362 -0.014859851236157498 0.00768454425283653 -0.07465727407906277 -0.030693687792130712 -0.0020292997360229492
-0.058568283915519714 0.033688709139823914 -0.07515904307365417 0.009752410446866979 -0.12683084303034992 -0.06764914095401764 -0.04309699524082518 -0.05148053169250488
-0.07413141667067617 -0.04356161493352621 -0.07383783720274642 0.07820761541421374 0.009506835369938465 0.02506195721794486 0.0564389477465412 -0.07043485613684376
-0.04235107625433571 -0.10032474994659424 -0.027396592557553834 -0.14064675880583966 -0.0760983473356335 0.008260908227583767 0.0039512636821531 0.03694307804107666
0.0776672512292862 -0.033863842487335205 0.002007021292861719 -0.09590417765924485 -0.009508110637738537 -0.02108992636203766 -0.10452036213759065 0.048270538449287415
-0.06349526345729828 0.06976196938895142 -0.11077910277893409 -0.08495257794857025 0.01614532405552369 -0.031154377690652008 -0.08879746496677399 0.06056312071286853
-0.12086029350757599 -0.11261722445487976 -0.08150923252105713 -0.10525140166282654 0.013867586851119995 -0.12039686739444733 -0.004523023962974548 -0.07332345843315125
0.03421880304813385 -0.11477324366569519 -0.05691395699977875 -0.05678252875804901 0.019016817212104797 0.04038892686367035 -0.1096198707818985 -0.10542556643486023
-0.05914124846458435 -0.041891321539878845 0.0024047493934631348 -0.094997838139534 -0.061246439814567566 0.045516401529312134 -0.013231813907623291 -0.04451276361942291
0.12186495959758759 -0.05553242564201355 0.09160973131656647 -0.08498270809650421 -0.061158686876297 0.07659029960632324 0.06242893636226654 -0.09125359356403351
-0.0455232709646225 -0.02596333622932434 0.1168077141046524 -0.0836978554725647 0.04144302010536194 0.09787259995937347 -0.01676715910434723 -0.016675129532814026
-0.061415985226631165 -0.11630772054195404 -0.004387229681015015 -0.05719122290611267 0.07761196792125702 0.060301244258880615 -0.11365199089050293 0.09356294572353363
-0.12117823958396912 0.07410363852977753 -0.06586174666881561 0.09452913701534271 -0.1204133927822113 -0.028004050254821777 0.08510622382164001 0.053745999932289124
-0.12069451808929443 -0.04077592492103577 -0.06751126050949097 0.1116713434457779 -0.06456264853477478 -0.03779959678649902 -0.0683642029762268 -0.10064660012722015
00000000: 8f38 16e4 1022 dabf 6622 18ab eeb2 ddbf
00000010: 7e14 61aa 5dba cb3f d5c0 5fea 8b04 e8bf
00000020: a934 c6d8 b41d c4bf dd8e ecc2 7237 ccbf
00000030: 5d8a 461b d014 883f 0000 0000 96f0 9d3f
00000040: 0063 bfc1 1f61 d3bf 8403 a9b7 6801 de3f
00000050: 84f0 feea 0bd5 ebbf a366 f355 0dac bcbf
00000060: b7b3 9c30 97c2 ae3f c371 3046 6847 7bbf
00000070: 8a91 b9ba 85ab d5bf 0000 0000 b527 9fbf
00000080: c952 ff24 9214 d03f f851 d8e2 693d 863f
00000090: 6a86 8105 b8a6 bc3f bcc9 b7b3 d31c b23f
000000a0: 352b 0df8 37e2 c93f b79a 4edf 9e9d d1bf
000000b0: 326f 95b6 bdd1 d5bf 9ce9 429e 7096 c3bf
000000c0: 2a80 56f7 a389 c73f 08fd 41e9 845e b13f
000000d0: 9979 fce5 7472 be3f 4415 452f 2d28 d9bf
000000e0: c143 4bfa 6740 d6bf 4ae3 de86 1969 d03f
000000f0: 0000 0000 5d6c 9f3f bd73 0333 0535 c03f
00000100: 6ddf 28c1 2faf d5bf 0000 0000 5027 8abf
00000110: 1a38 1111 3c9f 2fbf cd28 7a7a 8e15 b7bf
00000120: f755 0a30 8cca dfbf dbe2 560a 1b01 f0bf
00000130: c05b ac5e b18c 8e3f d3d5 d7e3 2dc9 c2bf
00000140: 3ec9 d010 09c3 e1bf 4a6b 546b be28 b13f
00000150: 99b5 7b68 260f 44bf 594a 4f08 48a3 d4bf
00000160: 202d 18f0 ee02 dcbf 6d19 6819 1fbd a43f
00000170: d782 c6ef da8e d13f c02b e3a2 cba6 d8bf
00000180: e242 c5cf 4420 e1bf 85e5 8fbd c527 cf3f
00000190: ad78 62bd c114 ddbf 4946 acef b31e 973f
000001a0: 387c 1861 9c13 f0bf 0000 0000 5007 b63f
000001b0: 006e 83df 4ed5 bcbf 9e6c 7274 5813 78bf
000001c0: bcfe 21b8 9bd9 d63f 705c 093f da10 76bf
000001d0: 3335 8bb1 c727 b9bf 0000 0000 fbe5 a9bf
000001e0: 47e2 7410 78c8 d3bf 2e6e f044 2209 bc3f
000001f0: 1b44 58ee be11 d03f e0d4 4da7 3f30 b43f
00000200: 4be4 1578 52ed 473f 5414 7bcf 1084 943f
00000210: 7ff7 6760 7d05 b6bf 0000 0080 dd53 b9bf
00000220: 687b 6769 0e8d a0bf eb03 6bd9 a52a bbbf
00000230: 1df0 2e3c cecc bfbf 0000 0040 e6c5 b0bf
00000240: a44d 8274 2a49 a43f cae7 658e 8127 babf
00000250: e491 5e55 a44c c0bf da0c 3aee 9973 bfbf
00000260: f656 b3ed 768e a7bf 7195 d75a e782 b83f
00000270: 7535 2450 3859 b93f 0000 00c0 7e52 bbbf
00000280: 6d34 5310 95f4 b6bf c930 f656 6ff3 993f
00000290: 4137 f625 d9d1 bbbf 6b53 ef92 2519 a93f
000002a0: d2ca a604 e865 9cbf 0000 00c0 df86 b8bf
000002b0: 0342 eceb 19b7 ab3f fd0c be31 3390 a9bf
000002c0: 1716 f438 90e6 923f fecc 214a b76e b73f
000002d0: 7644 4080 f674 733f 0000 0040 c233 b6bf
000002e0: 22ef 5f62 a094 bc3f 0000 0000 8308 943f
000002f0: 0000 0080 29f9 aebf ef92 524a 273a 6a3f
00000300: 25a8 08eb c04c ba3f 0000 0080 39e3 afbf
00000310: 2857 77d1 bf28 c1bf 0000 0080 7e2b b5bf
00000320: d9b9 f023 5db4 adbf be5d 3844 922b ac3f
00000330: b912 3e05 3304 ab3f 0a24 3299 315e 7bbf
00000340: e90e 9d97 0d74 c0bf 0000 0000 b8d4 a4bf
00000350: 7361 29e5 5815 95bf a8e0 874b 05d6 b4bf
00000360: cfce d776 048f afbf 7831 7d4a beae b93f
00000370: fa04 854a c853 8abf 8061 62f2 6d50 b4bf
00000380: 0000 0080 6e42 b2bf f07d 655a 1649 823f
00000390: d2c8 4784 f97e 983f 1992 bff3 e147 c1bf
000003a0: 6e9b 3509 b5ef 92bf 0000 0000 7096 89bf
000003b0: 2d30 6ea2 a9c0 ab3f 5326 5d4d c523 b7bf
000003c0: 7e53 e086 810c bb3f 5746 0976 b75f b23f
000003d0: 8eaa 6172 3be3 b63f 0000 0000 b015 7a3f
000003e0: 4da0 65f3 0538 ac3f c091 7f25 3e9b b9bf
000003f0: 0e03 5346 5629 b3bf 0359 9815 3508 b73f
00000400: 73df 35ed ad68 a73f e43d 2e63 76f0 b5bf
00000410: 0000 0080 1482 a5bf 0393 b585 e80d b33f
00000420: 46ec 5970 bec7 a43f b35c 5074 1421 a33f
00000430: 9f4b 023e 46a8 c2bf 0000 0000 54c4 b0bf
00000440: 357f 14aa dabc 9fbf 0000 0000 533c b43f
00000450: 1cd0 064f efaa b2bf a7bd 92d9 d2e7 853f
00000460: 52dd e1e4 d6bb 8ebf db7e 7c97 efb7 963f
00000470: 8546 f86b 0dcc b1bf 2e30 2259 0525 903f
00000480: 9124 bd10 dc7c a03f 50c5 3b9c 0a08 bebf
00000490: bec0 bb5f daea 923f f569 a978 d76e 8ebf
000004a0: af72 0224 d479 7f3f 41fd 9336 bd1c b3bf
000004b0: 8e18 0b85 2a6e 9fbf 0000 0000 c09f 60bf
000004c0: 0000 0080 a9fc adbf 0000 0080 a53f a13f
000004d0: 0000 0080 9f3d b3bf 2165 695f 12f9 833f
000004e0: 4e40 7839 fe3b c0bf 0000 0040 7451 b1bf
000004f0: 0afd 3a32 cf10 a6bf 0000 0000 a85b aabf
00000500: 83ea 34ca 46fa b2bf b639 003f b54d a6bf
00000510: 4240 fe57 09e7 b2bf c18f 800e 6a05 b43f
00000520: c3cb 04d8 5178 833f f2d1 7f7a d7a9 993f
00000530: 3b87 95d5 90e5 ac3f 8130 9bcb 0408 b2bf
00000540: b8f0 ec4e 0aaf a5bf 0000 0000 e2ae b9bf
00000550: 30e3 3934 da0d 9cbf 7c03 ae86 b600 c2bf
00000560: da10 1669 2e7b b3bf 0fc0 6155 18eb 803f
00000570: 46fb ae44 332f 703f 0000 0000 34ea a23f
00000580: 0000 0040 00e2 b33f 0000 0000 9a56 a1bf
00000590: 6141 165a 0771 603f 8fa2 981a 2d8d b8bf
000005a0: 5dfe e201 fd78 83bf 0000 0000 9998 95bf
000005b0: a9a3 25b1 d8c1 babf 0000 0080 eab6 a83f
000005c0: 0000 00c0 3941 b0bf 99b4 07a1 ebdb b13f
000005d0: d707 84ef 045c bcbf 0000 00c0 73bf b5bf
000005e0: 190a 355b 6688 903f 05fd 3be5 eee6 9fbf
000005f0: 0000 0040 6ebb b6bf a366 9c1d 2102 af3f
00000600: 0000 0040 b3f0 bebf 0000 0080 7bd4 bcbf
00000610: 0000 0000 cadd b4bf 0000 0080 c1f1 babf
00000620: 0000 0000 9c66 8c3f 0000 0040 54d2 bebf
00000630: 0000 0000 bc86 72bf 0000 0080 53c5 b2bf
00000640: 0000 0080 2085 a13f 0000 0080 c761 bdbf
00000650: 0000 0080 d323 adbf 0000 0080 9912 adbf
00000660: 0000 0000 2579 933f 0000 0080 dbad a43f
00000670: 0000 0040 0c10 bcbf 0000 0080 2bfd babf
00000680: 0000 0000 c347 aebf 0000 0080 c772 a5bf
00000690: 0000 0000 20b3 633f 0000 0040 c751 b8bf
000006a0: 0000 0080 b15b afbf 0000 0000 ed4d a73f
000006b0: 0000 0000 4819 8bbf 0000 0080 60ca a6bf
000006c0: 0000 00c0 8a32 bf3f 0000 0000 bf6e acbf
000006d0: 0000 0040 bc73 b73f 0000 0040 6dc1 b5bf
000006e0: 0000 0000 3150 afbf 0000 0000 6c9b b33f
000006f0: 0000 0080 aff6 af3f 0000 0040 655c b7bf
00000700: 0000 0080 d34e a7bf 0000 0000 2296 9abf
00000710: 0000 0040 1ce7 bd3f 0000 0000 396d b5bf
00000720: 0000 0000 0538 a53f 0000 00c0 2d0e b93f
00000730: 0000 0000 692b 91bf 0000 0000 4913 91bf
00000740: 0000 0080 ea71 afbf 0000 00c0 57c6 bdbf
00000750: 0000 0000 58f8 71bf 0000 0000 2b48 adbf
00000760: 0000 00c0 60de b33f 0000 0000 cedf ae3f
00000770: 0000 0000 4c18 bdbf 0000 00c0 bdf3 b73f
00000780: 0000 0080 8905 bfbf 0000 00c0 74f8 b23f
00000790: 0000 00c0 50dc b0bf 0000 00c0 0f33 b83f
000007a0: 0000 0080 69d3 bebf 0000 0000 18ad 9cbf
000007b0: 0000 0080 85c9 b53f 0000 0080 9884 ab3f
000007c0: 0000 0000 d6e5 bebf 0000 0000 95e0 a4bf
000007d0: 0000 0000 6b48 b1bf 0000 0040 7e96 bc3f
000007e0: 0000 0080 2d87 b0bf 0000 0000 785a a3bf
000007f0: 0000 0000 5180 b1bf 0000 00c0 f9c3 b9bf

value_layer.0.bias f8 [64]
0.11463896765428577 0.02410264809938733 -0.12772996149344565 -0.06359024345874786 0.2719298393676092 0.22200547619654826 -0.0032688614149047764 0.2326109966299884
-0.12287087320378089 -0.006863117218017578 0.08416785743230167 -0.09387248798839361 0.005254230087684684 -0.02803194522857666 -0.07496415506218834 -0.12195233118087176
-0.05655791818729238 -0.046259974059370296 0.16104105216343811 0.10459515452384949 0.0729454827325734 0.2586277405316355 -0.12378005683422089 0.07972680014774879
0.12719890070028228 -0.05744651663459051 -0.04009149383225381 0.13006343997179906 0.08678888025146618 0.2267377730519792 -0.03857771144801447 0.2089040140998351
0.23523328179065692 0.009158331486380773 0.3006395458461613 -0.024066914646572585 0.10280584028242704 0.28802374531760666 0.11944341393315734 0.014834568318339982
0.21524445755830268 0.09706829519294882 0.2764334941708973 -0.0022049301515030205 0.2889010355851909 0.05981380294062682 0.02016279651500958 -0.1255256444131288
-0.05533170094196135 0.1709153395625401 0.2159875909759999 -0.11847136058885244 0.16661740973667716 -0.1413623619263883 -0.008879449626136557 0.2035294315267363
0.22781206151305458 0.015538517604858445 0.2902316637158093 0.03266153421331663 0.03493812443057924 0.05170668016679568 0.0631907485219228 -0.07071667909622192
00000000: bc1f ecb8 fa58 bd3f bee0 5555 5dae 983f
00000010: 4db6 aa93 7459 c0bf 0000 0040 7347 b0bf
00000020: 8ffc b869 4c67 d13f c206 e6e9 ac6a cc3f
00000030: e3d5 e89b 4cc7 6abf 3c9e 9b77 32c6 cd3f
00000040: 318c 0a2e 7774 bfbf 0000 0000 801c 7cbf
00000050: edce 0b53 068c b53f 6d80 e701 0708 b8bf
00000060: 97b7 46a6 7585 753f 0000 0000 68b4 9cbf
00000070: 7847 5dd2 d930 b3bf 16c2 179a 4438 bfbf
00000080: 9f76 e3d1 28f5 acbf 9cc9 6527 63af a7bf
00000090: a47d 2d42 fe9c c43f 0000 0080 bfc6 ba3f
000000a0: a832 ba1e 8eac b23f ecfd da5d 5b8d d03f
000000b0: 0000 00c0 0cb0 bfbf b7d2 3fbf f968 b43f
000000c0: 8024 4cb7 0d48 c03f 5aeb 6d3c a169 adbf
000000d0: 1af2 b64d df86 a4bf f9c4 8a36 eba5 c03f
000000e0: 5b25 56ca cb37 b63f ed57 034c be05 cd3f
000000f0: 9028 0c32 75c0 a3bf d2ec 47e2 5dbd ca3f
00000100: 2b5e 1cca 1f1c ce3f f76b c271 9ac1 823f
00000110: 9dc9 52a6 ad3d d33f 7565 4a4d ffa4 98bf
00000120: 92cf d9c9 7b51 ba3f 5013 a725 fb6e d23f
00000130: b5c4 90f4 d793 be3f 0e6b 380e 9661 8e3f
00000140: 84d8 ed60 218d cb3f 5a0a 55c1 77d9 b83f
00000150: a5e9 3e1c 16b1 d13f f35d 80dc 1210 62bf
00000160: 819c e7c4 5a7d d23f 6771 f52e ea9f ae3f
00000170: 12f0 825e 8ea5 943f c227 c86c 3911 c0bf
00000180: 1b9f f4cb 6f54 acbf eb25 e7c8 8de0 c53f
00000190: 22b8 ca3b 7ba5 cb3f f8e2 3d9b 2354 bebf
000001a0: 84b2 e122 b853 c53f bcf8 ad70 2918 c2bf
000001b0: d881 018e 632f 82bf 9424 179e 400d ca3f
000001c0: c99c ea14 f228 cd3f 318d 8787 a8d2 8f3f
000001d0: 9713 fbd3 2793 d23f 2f17 913a 03b9 a03f
000001e0: 9636 a0eb 68e3 a13f 4e2c 9a48 4c79 aa3f
000001f0: 24b9 4fd6 442d b03f 0000 0000 7d1a b2bf
