models/DuelingDQN_CartPole-v1.pt (torch, 276351 bytes, 10 tensors)

feature_layer.0.weight f8 [128, 4]
-0.06683236240768649 -0.33267551960081154 0.018240238027695022 -0.3071667588614663 -0.5290314496077896 -0.20877974129866947 0.6737316037687618 -0.052830412866589314
0.19021052166878555 -8.783408572753271e-05 0.6372241652297324 0.2830493440708463 -0.07261852534588943 -0.2800742076224408 0.10652699836870648 0.20928677293265752
0.4792957734540834 0.05458969642281695 -0.8158610552188874 -0.41020881486757543 -0.44016605872369474 -0.25438276808491755 0.4840641359393534 0.49307083252167044
-0.4468409211063168 0.36068827888799915 0.528801268677154 0.023917410134480534 0.4618811003836809 0.44225666615796216 -0.7955085189323695 -0.38249078600506725
-0.26426065688979894 0.12454064915832051 0.14418253938213393 0.3392992883865293 -0.2893047001619265 0.49979864179559164 0.1384011806907148 0.23668590999275707
0.005372111162163665 0.043420653686640144 0.08881194083159023 -0.5501153768212101 0.1345321414945395 -0.4081153329067578 -0.5254962730582196 0.09270026651072125
-0.18032981102414022 -0.372885527237556 -0.27715816012428657 0.07289365095011806 -0.22000928757419622 -0.20653862034845816 -0.15442186003990482 0.5512365903531016
-0.011315464973449707 -0.03436136245727539 -0.03326857089996338 -0.04492998123168945 0.1840923138085194 -0.1565062308836044 -0.23979314752065148 -0.0598246089118082
0.16133514740420996 0.07165167880021896 -0.04385863532710948 0.4728814139178021 0.6999455586076935 0.059279129450623705 -0.7063596365806296 -0.21495192516533063
0.5300787050770122 -0.5942021155384516 -0.13217026408174107 -0.022902940290491527 -0.5995633537215228 -0.08439172225962217 0.12838941639173 0.07130756884758213
0.22753419943574665 -0.22420943616312305 -0.7903445092971955 -0.13799234407813493 -0.28777545162956436 0.2532785891665272 0.24708635282750174 0.05025357409187932
-0.21029621086783734 0.2805585663495722 0.9045342534858216 0.33043540492348544 -0.6088442443677706 0.014848998000160393 0.672100788501273 0.1434868128430915
-0.32073506426981274 0.3887354030666126 0.2581973508178777 0.477307913437456 -0.2731192655929989 0.4673447165852023 0.317691075914288 -0.2503750208169367
-0.2081561055314294 -0.27414349124229614 0.006130659942845651 -0.3876832966753509 -0.25803051248917286 -0.07226981981553969 0.5704838476499046 0.21831512297073238
-0.32208521789559685 0.19733785583010507 -0.10513559521285212 0.4024596025905611 0.046025140751889154 -0.1608278596147824 -0.7517134109737156 -0.2504095598719131
0.1371993101168748 -0.01539233340368651 0.7622606616930457 0.375976438483213 -0.14555402170719803 0.18047072822201715 0.21624199265143865 -0.22864169348133684
-0.34139235100852267 0.23188712011860285 0.39318216506306 0.3819942310885943 -0.3048701174303111 -0.2394446636567709 -0.24966367179005264 -0.30159922994304933
0.4963210518772191 0.03463326005605856 -0.5251055334785539 -0.6434268948302491 0.30357318436724584 0.1917315870666962 -0.3289134449173497 -0.46409147644341575
0.33487920224927403 -0.512743230450453 -0.48975430791708136 0.3649097420970099 -0.4843589096089493 -0.5663127415424898 -0.030538854449251324 -0.2041496804396646
-0.29461567564926494 -0.057498502214612286 0.061322608194423235 0.4472103253776507 -0.3323829880762242 -0.08310069133316642 -0.6722542529794231 -0.132609485752195
0.2209298335475204 -0.02517968437547946 0.6157448628947955 0.5844343388386897 -0.6382319292964739 -0.20691757893339607 -0.024672175369274938 0.4210739757565843
-0.03380736975070897 0.021073330208329525 0.2935404483979041 -0.3138089700928665 -0.0547681572181384 0.5473240840291852 -0.5163499761146865 -0.580048074756796
-0.08848668894423371 -0.10997441877472412 -0.1228176706542706 -0.5440527070541279 -0.16964135436733233 0.4532177915723282 -0.650089872018463 -0.36487717130598396
-0.16482052400880814 0.5139995192218005 -0.02857225964208296 -0.2992637617675073 -0.48917237662720675 0.6103127775430178 0.6675397933176455 -0.26054263728036237
0.5117634854098199 0.6202053217210853 0.12276688497540554 0.24382469730602252 0.05925986305694575 0.6236393361095197 -0.0911785184743309 -0.30642935216935624
-0.287912264247393 0.23711969894886945 -0.21295413283099868 -0.062387980031573045 -0.12444321603350116 0.27290825223057297 0.308556217979268 0.3825750394307144
0.01308763017301824 0.20234948419071194 0.9790132771614645 0.4836407966648134 -0.4709844611540064 -0.30459541178141053 -0.17203015418923734 -0.15978035508811694
-0.012357473373413086 0.20262938737869263 -0.0029166340827941895 0.14074289798736572 0.0740589314210461 -0.4622624496552723 0.15750078681748025 0.0022101336218068065
-0.4532662993488426 0.49882792348756133 0.3123684836128775 0.026780955725205818 0.5505654142340809 -0.28929590172935765 -0.2174384433558713 -0.1581373382626142
-0.16864049632722855 -0.24184090860659666 -0.6122410330032474 -0.5497990050575966 0.4237008981802002 0.4727805364043982 -0.6869991839576838 -0.4595778082001624
-0.47078209160322354 0.07152433884452379 0.16385620719821595 0.11173854182809133 0.4671668088246945 -0.4235470115443493 -0.03051110070755292 -0.347855015476949
0.1599494586987307 0.007111697255793908 0.26497697266638204 0.1690134466051285 -0.03801569787738977 0.45185501867252426 0.5239985030676644 -0.09785152009578953
00000000: adfd dafa ec1b b1bf f460 3743 8e4a d5bf
00000010: 1d69 33a7 91ad 923f bb9c eec3 9ea8 d3bf
00000020: a5de d35c d3ed e0bf e3f9 7868 4bb9 cabf
00000030: a5fd 8e94 358f e53f 230b fe7e 960c abbf
00000040: 9215 f680 d158 c83f 733c 4a1a 7206 17bf
00000050: 443e bcee 2364 e43f fb10 fcfe 7a1d d23f
00000060: 69c0 71af 2097 b2bf 7d41 8c5e bcec d1bf
00000070: bf77 2276 5a45 bb3f 1096 9db2 e8c9 ca3f
00000080: ff29 062e c8ac de3f 5d4c ab41 2ef3 ab3f
00000090: 72d8 c7a4 881b eabf 26c7 1879 dc40 dabf
000000a0: 4ec2 c142 ae2b dcbf 98cd 65a9 ce47 d0bf
000000b0: 54aa 4124 e8fa de3f 3db1 12f7 788e df3f
000000c0: 26a2 aaa9 0a99 dcbf 8af7 774a 8415 d73f
000000d0: 69a7 61a3 f0eb e03f 7798 5439 ce7d 983f
000000e0: 3075 32bf 758f dd3f 3188 65e7 ee4d dc3f
000000f0: 2520 1048 ce74 e9bf 3470 3aa2 ba7a d8bf
00000100: b483 bd87 a5e9 d0bf 3f58 285f e5e1 bf3f
00000110: b276 a6cd 9274 c23f 1f47 cb5c 14b7 d53f
00000120: 6592 71dc f783 d2bf ea39 4671 b3fc df3f
00000130: 1faf 6540 21b7 c13f dce3 6b51 b94b ce3f
00000140: 2a11 081c 1101 763f fd30 1c5f 3b3b a63f
00000150: 05b0 5d1d 61bc b63f 7c29 0f90 8b9a e1bf
00000160: 176d fd65 5938 c13f d129 f5c5 8f1e dabf
00000170: dc8e 5e8f ddd0 e0bf de78 fe64 34bb b73f
00000180: 6fd8 6b18 0c15 c7bf f1c4 2842 5bdd d7bf
00000190: f569 6394 f5bc d1bf 2bb3 ea86 28a9 b23f
000001a0: 7345 79ab 4329 ccbf a4f8 e085 db6f cabf
000001b0: 3256 5473 18c4 c3bf 969a fdea baa3 e13f
000001c0: 0000 0000 902c 87bf 0000 0000 d097 a1bf
000001d0: 0000 0000 9408 a1bf 0000 0000 1001 a7bf
000001e0: e353 a041 5690 c73f 8df5 a16b 6508 c4bf
000001f0: 23fb 33b7 8ab1 cebf a25e 8bc5 54a1 aebf
00000200: 20f1 e54e a1a6 c43f 0983 26b1 c357 b23f
00000210: 9716 c198 a374 a6bf db71 ea67 b043 de3f
00000220: 746a 663a f465 e63f 8acc a684 d559 ae3f
00000230: 0581 4a86 7f9a e6bf 0e0f 6670 8b83 cbbf
00000240: d693 d39d 67f6 e03f 0674 ae27 b403 e3bf
00000250: a90c de88 f4ea c0bf 979e 1e4e de73 97bf
00000260: 0ea6 837c 9f2f e3bf 4d7f 2827 b29a b5bf
00000270: 750a 477c 106f c03f ae5a 287c 3641 b23f
00000280: 4627 a634 d71f cd3f 303a e311 e5b2 ccbf
00000290: de25 8091 804a e9bf eefc 74ae bba9 c1bf
000002a0: 89cc 55ba e96a d2bf 03d3 4f66 b735 d03f
000002b0: fe4c 578e 86a0 cf3f eaa5 7622 d6ba a93f
000002c0: dc35 137a fcea cabf 3861 c5ea abf4 d13f
000002d0: 08ab 9ad1 f1f1 ec3f 908f 658a da25 d53f
000002e0: 665b bdec a67b e3bf cbfd 4fc6 2669 8e3f
000002f0: 2b52 4783 d981 e53f b8bf 48a0 c65d c23f
00000300: 1309 ee5c ec86 d4bf 90fb bd74 0ae1 d83f
00000310: cd4d 6b2e 4e86 d03f ef7e 957d 368c de3f
00000320: 3649 683a c97a d1bf fd46 6cd0 f9e8 dd3f
00000330: 5e1b 52f3 0c55 d43f 5138 89f3 2406 d0bf
00000340: f92f dcf8 dba4 cabf cf00 5324 918b d1bf
00000350: e696 517f 761c 793f 2f45 1b9a cdcf d8bf
00000360: 24b6 2069 9283 d0bf 5776 9860 4680 b2bf
00000370: caae 9157 6741 e23f 73d5 b0fc bff1 cb3f
00000380: 6cbe 5851 0b9d d4bf cfca 86ea 5d42 c93f
00000390: 82ae 1597 2aea babf 849b c5eb e5c1 d93f
000003a0: 5475 a574 9b90 a73f c463 aade 0196 c4bf
000003b0: 4c18 8348 090e e8bf 175c 90d1 b506 d0bf
000003c0: b42c fe3a bf8f c13f 81aa 9f04 0486 8fbf
000003d0: 69f7 9f78 7064 e83f 7186 d67a ff0f d83f
000003e0: f14f 84a1 83a1 c2bf b4a7 cc31 aa19 c73f
000003f0: c5da 3a4f d1ad cb3f 1e90 008a 2144 cdbf
00000400: 01ea ab4d 5fd9 d5bf 6af2 a226 7aae cd3f
00000410: 873e 1487 e529 d93f c250 72ee 9772 d83f
00000420: f203 f9f3 fd82 d3bf 39c4 cd6b 1fa6 cebf
00000430: f734 abac faf4 cfbf e6aa 46db 664d d3bf
00000440: 2241 885f b9c3 df3f 5ada 965e 73bb a13f
00000450: 12a6 a71e aacd e0bf 4235 d5ff f396 e4bf
00000460: 8d31 b338 be6d d33f b7e3 0720 a98a c83f
00000470: 299f 48fa ea0c d5bf 1a51 6bbc acb3 ddbf
00000480: 5e5b 712d a96e d53f 79f6 c07d 6468 e0bf
00000490: fb0d e573 2258 dfbf d619 1364 ae5a d73f
000004a0: 6ffc 1283 bcff debf 8275 07e6 3b1f e2bf
000004b0: 85a4 77d4 9345 9fbf 3b15 7da4 9321 cabf
000004c0: c25c f3b4 fbda d2bf 3157 2995 7170 adbf
000004d0: eda3 6649 ad65 af3f c88d 7b0e 189f dc3f
000004e0: 5d2f e24b c345 d5bf 6e0a 8d3f 1646 b5bf
000004f0: d297 e459 1b83 e5bf 94f7 38fe 58f9 c0bf
00000500: b50e e6c4 6d47 cc3f 0047 aa03 b4c8 99bf
00000510: 5405 1a92 2eb4 e33f fa16 7fa4 afb3 e23f
00000520: 41ec f25d 656c e4bf 7e43 3e75 467c cabf
00000530: 892f 54a9 a943 99bf f98e c442 e0f2 da3f
00000540: b0da e216 334f a1bf 1116 4040 3f94 953f
00000550: e504 7be0 5dc9 d23f 2361 ef37 7215 d4bf
00000560: 1b6a 3a68 920a acbf 01fe 26cc ad83 e13f
00000570: a57e 9662 f085 e0bf c005 e6fa c08f e2bf
00000580: 3f95 254b 10a7 b6bf 67b7 0894 4827 bcbf
00000590: d6bb d496 fa70 bfbf c020 0339 e168 e1bf
000005a0: 8146 87d2 ceb6 c5bf 022f 3132 8501 dd3f
000005b0: c7f6 7846 89cd e4bf 783c 74c7 255a d7bf
000005c0: b2e8 29c4 d618 c5bf 96f4 a61e af72 e03f
000005d0: 7838 f1e2 0b42 9dbf 1bd7 6a31 2327 d3bf
000005e0: d11b eea7 994e dfbf 171a 7ca9 ae87 e33f
000005f0: 0c7e a269 7c5c e53f b94b 9506 bbac d0bf
00000600: a6e8 23d1 5d60 e03f 6d1c b3d4 b8d8 e33f
00000610: 0f4c 008c a66d bf3f b877 71ce a535 cf3f
00000620: f00c 970b 4f57 ae3f 81dd 227b daf4 e33f
00000630: 68ea f1b2 7957 b7bf bd84 86db 899c d3bf
00000640: ccd4 c38f 276d d2bf 6583 1c34 f059 ce3f
00000650: a651 07be 1442 cbbf ca57 cc3b 51f1 afbf
00000660: dfac 12b7 82db bfbf 97e2 882c 5477 d13f
00000670: a4b2 4c94 62bf d33f a9bb a704 1c7c d83f
00000680: e71f 9afc afcd 8a3f f314 7b80 96e6 c93f
00000690: c743 f8a6 1354 ef3f def3 2b87 f8f3 de3f
000006a0: 3429 6502 9c24 debf 4d38 07c1 7d7e d3bf
000006b0: 1295 1587 1505 c6bf 08c8 d2c3 ae73 c4bf
000006c0: 0000 0000 e04e 89bf 0000 0080 c2ef c93f
000006d0: 0000 0000 a0e4 67bf 0000 0000 dd03 c23f
000006e0: 051b 6eb0 86f5 b23f 240c dc3d b595 ddbf
000006f0: 20d8 3c5c fc28 c43f 47b0 0374 fc1a 623f
00000700: 2d43 05a7 5002 ddbf 8e7b 6df4 cbec df3f
00000710: 68c7 5a61 d8fd d33f ab45 fb83 776c 9b3f
00000720: d335 0e5c 3b9e e13f cbd7 32f5 d283 d2bf
00000730: 96a5 8ddd 05d5 cbbf 3ba5 0e24 d83d c4bf
00000740: 10da 4004 0396 c5bf d76e a694 a4f4 cebf
00000750: 2195 c081 7a97 e3bf 1b10 4315 f497 e1bf
00000760: f810 3e5f ea1d db3f dcb3 824b 0942 de3f
00000770: 1743 6fb6 e5fb e5bf c3f8 0b0a b969 ddbf
00000780: d19c be35 4b21 debf 678b 3448 6b4f b23f
00000790: 21db 947d 3df9 c43f abb8 daa6 e59a bc3f
000007a0: 9870 6b9d 0fe6 dd3f 6bb2 b9ec 641b dbbf
000007b0: c0cb d04e 4d3e 9fbf c746 ceae 4143 d6bf
000007c0: a1dd 0f4f 3979 c43f 397d 1fb2 2721 7d3f
000007d0: 81e4 f2f9 61f5 d03f 1f6b e08c 3ba2 c53f
000007e0: 3e6b 3c26 cb76 a3bf 73d8 ee4f 31eb dc3f
000007f0: ae83 3a82 98c4 e03f a5e0 ac16 cc0c b9bf

feature_layer.0.bias f8 [128]
0.475131114489289 -0.13378418464570366 0.6587163410485073 0.6306175527359479 -0.43230395028381946 0.189943277593233 0.05944814469770856 -0.33399649669533615
0.528721778419939 0.45751699138643787 -0.26695132702395546 0.007240454359651048 0.0650993110679039 0.32727445556730156 -0.3222143054008484 0.37107094545243835
-0.44755778385267825 -0.16753793432363198 0.062382318339427256 0.5733282221087105 0.45362065374625293 0.4925270525811916 -0.2639721948441854 0.3023324224962087
-0.26326152134264075 0.09473500565675856 -0.363648284738122 -0.3046623069164084 0.4365150323376352 -0.20712883631197893 -0.15379931682974457 0.2691689803387668
-0.2647566937373123 0.4147211372801135 -0.056928992661489874 0.05295058469771919 -0.388156491693242 0.1360174863193098 -0.5035498197072834 -0.11263482592303976
-0.007201040524523909 0.05976176257371777 0.24985767757811625 0.04087916506058145 0.07129519991629271 0.3264502022523089 0.2531523003822064 0.18588070237773668
-0.18284226857877345 0.06953315519584612 0.5680967685341426 0.4938297252567367 -0.4093802422287016 0.5657054380959308 -0.47430944442749023 0.05806512417556961
0.11623672790339235 0.07513863779723913 -0.27031221288330565 0.21082444113678708 0.577272783848168 0.5362980867165613 0.5687778049875107 0.18106240593790265
0.2806261207293372 0.2348613468567186 -0.21918736253987112 0.4482194407099954 0.4769946548900204 -0.2914916112584933 0.2956172059352978 0.1001591024225007
0.16416995007741034 -0.06394184038506852 -0.13044898198402916 0.5591264593845992 0.4895144634448575 -0.12691104121369437 0.21954131358858917 0.3285352240189656
-0.05261572066763944 -0.06443170358354107 0.28819818517582363 0.4129734111503042 0.4952375933804267 0.11018803369605126 -0.3124747229915594 -0.2552643159138772
0.361469608015606 0.4382750602291095 0.41592978472329784 0.3862273349740578 0.3453559318926503 -0.36842727651689083 0.4513217838833632 -0.24113921943232605
0.09341218457549708 -0.4137148353070914 0.0535034994484149 -0.3098077462096276 -0.16765340993715555 0.6025576240876795 0.6208891774066 -0.4311577832642561
-0.23144859881907293 -0.006135324354305796 0.35677327578774065 -0.4674763529797694 0.6308312168948809 -0.28729169179454955 0.34040532162735776 0.030019051484110392
0.32606451521870616 -0.011524855796957409 -0.06737691110810817 0.5456396798573204 0.05084944483380956 0.011170174278128657 -0.3952237395416073 0.3695411212338065
-0.32911641127135227 0.2156991456785352 -0.028674265784662804 0.39474432081255273 0.43458450016583416 -0.4451929004179907 -0.46616673469543457 -0.16302547416501234
00000000: 2ac9 8255 8c68 de3f c53d e314 d71f c1bf
00000010: a49c c44a 3414 e53f 3a1a a9dc 042e e43f
00000020: aba3 1930 deaa dbbf 77d2 adb2 0f50 c83f
00000030: 73ae 91ba fc6f ae3f 1c3e 92d7 3260 d5bf
00000040: 1ee4 5fef 49eb e03f c09e d758 f547 dd3f
00000050: a544 cc04 bb15 d1bf 8b15 edaa 2aa8 7d3f
00000060: 005e 0734 59aa b03f b593 de8e 10f2 d43f
00000070: 0000 00c0 289f d4bf 8cb2 cd59 a0bf d73f
00000080: 5beb 2d67 c9a4 dcbf dd33 610e e271 c5bf
00000090: 08a6 3b42 93f0 af3f 6395 7a6d b458 e23f
000000a0: c656 28ec 1e08 dd3f bdd0 ce2f 9085 df3f
000000b0: f52e faa1 ebe4 d0bf 2311 c916 6a59 d33f
000000c0: eb8e 1dda 46d9 d0bf fb07 15a7 8d40 b83f
000000d0: 3997 8c74 0346 d7bf b2e9 2155 967f d3bf
000000e0: c88f 06bf dcef db3f c65d 029d 3283 cabf
000000f0: 9427 f72d b2af c3bf 5ac5 e987 103a d13f
00000100: 11ed 3f0f c6f1 d0bf 2efe 6486 ca8a da3f
00000110: f0c3 5903 cc25 adbf 415c 29cb 561c ab3f
00000120: 4f5d 6353 8ed7 d8bf d978 b65f 0569 c13f
00000130: 5495 f182 141d e0bf 69e8 bacd a2d5 bcbf
00000140: b8cd cc98 d67e 7dbf ed61 9cff 1799 ae3f
00000150: 6f1f ed1c 56fb cf3f 74c4 0b2a 1dee a43f
00000160: 0e94 00f8 6640 b23f 668f 9c63 8fe4 d43f
00000170: a21e c3b4 a533 d03f e8be d558 f0ca c73f
00000180: e2a6 ef1d 6067 c7bf 37c9 8dc3 eccc b13f
00000190: 5728 3a46 d92d e23f 674d f1fd e79a df3f
000001a0: a00d 0030 4933 dabf f252 794a 421a e23f
000001b0: 0000 0000 165b debf 9c97 be42 b6ba ad3f
000001c0: 386a f0b0 b0c1 bd3f 4d50 0128 493c b33f
000001d0: 96c3 8298 cb4c d1bf 1ba3 f097 4bfc ca3f
000001e0: d5f5 efc5 0479 e23f 2f5c eb9a 5a29 e13f
000001f0: b495 e382 6d33 e23f 3fe9 048c 0d2d c73f
00000200: fbe4 bb42 c7f5 d13f 160c ecc5 ef0f ce3f
00000210: 2b12 e7dc 540e ccbf 4ef9 d197 a0af dc3f
00000220: f9a4 c796 1487 de3f 0078 5a6e cca7 d2bf
00000230: c920 e86d 64eb d23f 9825 4de5 06a4 b93f
00000240: 51c2 485b 8503 c53f a5c7 4c11 7e5e b0bf
00000250: b27d b55f 8db2 c0bf f352 2c2c 5de4 e13f
00000260: a289 da78 3454 df3f ddce c1f9 9e3e c0bf
00000270: 7bef fd04 ee19 cc3f 20b6 af9a b806 d53f
00000280: 63c4 0b9f 72f0 aabf 1d85 b79b 987e b0bf
00000290: 9230 06cd d671 d23f 0385 c007 286e da3f
000002a0: 3c65 d404 f9b1 df3f 0295 2271 4835 bc3f
000002b0: 77d3 04fb 95ff d3bf 08e6 2b24 4056 d0bf
000002c0: aa32 3b6c 5122 d73f 7d88 95d6 b20c dc3f
000002d0: 9b68 b4f5 979e da3f 6a3a 22db f2b7 d83f
000002e0: a958 3dc4 4f1a d63f 910a e6ff 4f94 d7bf
000002f0: 5817 70c3 74e2 dc3f df55 9f62 a6dd cebf
00000300: 8ab7 cc65 dce9 b73f 1ce5 e0c9 4d7a dabf
00000310: 5c7a b488 cf64 ab3f f023 81de e3d3 d3bf
00000320: 7619 5fbc aa75 c5bf 7a2f 2ded 2648 e33f
00000330: a3da ecfa 52de e33f 234b a2d0 1698 dbbf
00000340: 4204 5191 1ba0 cdbf b6c8 3b97 5a21 79bf
00000350: b016 e693 5fd5 d63f c0e4 ecef 21eb ddbf
00000360: 2c80 bbf2 c42f e43f f3e2 2ab1 fc62 d2bf
00000370: f986 f166 33c9 d53f d357 8671 50bd 9e3f
00000380: 2a07 50b3 3dde d43f 0b92 e9f5 579a 87bf
00000390: b0fe b6fd 9c3f b1bf 2263 8c58 e175 e13f
000003a0: aa74 293d f008 aa3f dcb1 b869 63e0 863f
000003b0: 12c7 fb82 584b d9bf d97c 8ecd 8fa6 d73f
000003c0: a430 bf47 3e10 d5bf 0c73 3b94 079c cb3f
000003d0: 7eb4 2067 c95c 9dbf 40fc 0aaf 7d43 d93f
000003e0: 90e3 e381 3bd0 db3f d539 ed5c 0a7e dcbf
000003f0: 0000 0000 add5 ddbf 4010 facb 04de c4bf

advantage_layer.0.weight f8 [128, 128]
-0.1019114709461337 -0.03751560530034834 0.11189493244965176 -0.12852500203840939 0.18917354637360273 -0.05688609161191512 -0.2041297601067208 0.15507386246724608
-0.1384182946958505 -0.007929986351242969 0.0729525578605237 -0.05639006643674965 0.03164258245954122 0.05488085553288744 0.01870860904455185 0.06191259484240065
-0.02465594270745711 0.22113573397806935 0.09707257537970149 -0.2990938320400706 -0.00806454357646003 -0.13025207835415206 -0.18280319865047115 -0.21544665233391191
0.017528127788493348 -0.051149554269156086 0.13649787119138573 0.018403489481570553 -0.1339041363408067 0.1777082229007771 0.0846180137105505 -0.08687446387045063
-0.13659161676323878 -0.09778034679478258 0.10959635489676449 -0.009670197757565686 0.11362278534468032 0.05662726088374742 -0.05764216105760898 0.15815006751574714
0.08691452590393203 -0.06574476658974437 -0.0029446831256427007 0.04072118110127142 -0.013791676514212443 0.01358425860578046 -0.006534003892079726 -0.11986181100304893
0.11937149720352008 0.024032145504499527 0.0033005525141554487 0.07734045055831608 -0.06915017099661844 -0.10657000303928019 -0.003326617181301117 0.04075766265437658
-0.1688417140149695 0.06201842548223016 0.004624172897955787 0.08066370051059804 -0.22150568589831743 0.1455688285602195 0.08253906999506903 -0.07662035292949865
-0.010138438161488786 0.13517869334649843 0.08432024336222202 -0.015542113466737326 0.03443122264613854 0.07992873613556789 -0.02668179760908087 0.05512404951049528
0.1545665846880894 -0.09190332208957842 0.08924630949449136 0.06640256568609218 0.014545987680963211 0.15394117192121756 -0.05519634562912242 -0.048131482435734965
0.008464735057953393 0.003638590279086236 -0.01230474522468345 -0.1113279802245814 -0.024381184200612013 -0.04609577858791265 0.0026046657000760756 -0.18008970133803387
0.13831037366160526 0.06348171654885035 -0.052219183617603804 -0.06157936853860427 0.11821159846945406 0.1824700338078539 -0.05952176363128038 0.032960287609908344
0.08282538724049335 0.058967861379799286 1.0317992385519993e-05 0.11506675808861203 0.16808778218927306 0.044162658367038636 -0.07152650015765 -0.07492278516292572
0.07800696111409691 -0.11507201416556738 -0.010336467105560451 0.06188517063856125 0.05682606236424739 0.06185150699503044 0.03874496120851656 0.047072540726789604
-0.00509113827788421 -0.10975154376930296 0.009484574040890013 -0.010008221567549802 0.016599549573174024 0.049572608086707604 0.017983766868292672 0.1291500570963621
-0.12449155785466393 -0.002121283758692755 0.006372680306584768 -0.07499666137652587 0.06183791160973847 0.04569775698098791 -0.06904527544975281 0.10048380830829241
0.042002256787555994 0.12126023085913647 -0.24919533045984235 -0.053991837857506636 0.3450476049602578 -0.05356642175360598 -0.1630753565043232 0.2399118036113886
-0.21898862834180652 -0.25517619037721545 0.1928577707246149 0.03044115358694404 0.10812219899232393 -0.01067140111643308 -0.05139689892530441 -0.04303834572502516
0.17230337861323533 0.3177476206680902 -0.08908143181706582 -0.09611925041183182 0.11611549653253161 -0.18357644059055414 0.299097752178414 0.037267704414275515
-0.1559782484261586 0.0971275144725841 0.15593660694398284 -0.08301537003775662 -0.27805507653029754 0.31141304029738515 0.08933502929376688 -0.050627519370955665
-0.20358913437361648 0.010520404335446794 0.17649435786317927 0.07499630870446182 -0.1798649757616277 0.004698448795368461 0.0695247494097891 0.15125262315132285
0.0567260334269683 -0.006482606677339841 -0.035209725304778894 0.04893512440990893 0.15564565910693753 0.11641322466908931 0.04703750936409795 -0.00973362587576967
0.015026962508299838 0.10246531575984855 -0.0033887450659677654 -0.273550747470382 0.09002949152718502 0.056935873780843006 -0.0848274827003479 -0.08793385794323384
-0.10523387800211212 0.07761642165457647 0.18741159093531246 0.13010962027898715 -0.13304553790933613 -0.06159275980491991 -0.20274586119155852 0.0011174564714099538
0.04313649580011224 0.010181074200987225 0.1462267078900567 -0.021665368394493238 0.09268243420069434 -0.06999782244161926 0.17195334272647506 -0.054289587228259564
0.08003484206146641 -0.016473287871166663 0.23457668251099503 -0.1372266363741361 -0.15584990480604707 0.18577359834318058 0.15148357549764851 0.06297615287463153
0.05613165573908549 -0.0557649733303143 0.013084333113724835 0.024343550633745003 0.08206791705047002 0.07575256072022064 -0.12198276589727151 0.032460398245988495
-0.08469579842506494 -0.05161168375041486 0.07645522150258817 -0.043312967791209765 0.16829596192439863 0.29868551487120204 0.0736223135987164 -0.2115564395139797
-0.02026933156037122 0.14203374126696183 0.07292344056961213 0.15012360814180017 0.14370166649698904 0.07807135856240027 -0.2697248467070014 -0.010168316979052404
-0.14594844598617052 0.18469670716925343 0.2560722846802308 -0.07423857991383982 0.049943525001783035 0.164137977120469 -0.21813730189224553 0.01290473546484012
-0.21086444613004787 -0.020070148316515588 0.21424870331081222 -0.33557383739541125 -0.04914995206087539 0.1389948700414369 0.22777451143894575 -0.06465523372353287
0.12662473712853625 -0.010682344506684332 0.013091950426842485 0.00879872238440252 -0.2111718424214015 0.07841318491980949 -0.01387711614370346 0.0059030789381719585
00000000: ae07 cdc2 de16 babf 6c93 b5d3 3e35 a3bf
00000010: 289a 7573 25a5 bc3f 2695 3cdc 8173 c0bf
00000020: 04b3 78b9 d636 c83f 1b10 247e 2c20 adbf
00000030: 843b e689 ec20 cabf c86f e1d7 75d9 c33f
00000040: 9f81 71d0 b0b7 c1bf 7a5f 4ac0 983d 80bf
00000050: b1a5 2bd2 04ad b23f e888 54a6 28df acbf
00000060: c140 a6e1 7433 a03f bd68 61ef 5719 ac3f
00000070: 0000 0080 5928 933f 0202 1ef4 01b3 af3f
00000080: 0983 524e 683f 99bf 72d5 b4fc 2c4e cc3f
00000090: e024 9890 bfd9 b83f ef08 c374 5a24 d3bf
000000a0: 4231 58b7 2484 80bf bf30 62a0 19ac c0bf
000000b0: 656b e75f 1866 c7bf 5446 e782 c193 cbbf
000000c0: 455e 72be e4f2 913f 4afe 943d 4630 aabf
000000d0: b6cc 5e22 c378 c13f 7f8f d245 5dd8 923f
000000e0: 8902 314f c523 c1bf 2668 cb9e 24bf c63f
000000f0: 2c0f 8ab1 86a9 b53f d15d 2ea5 673d b6bf
00000100: bef3 7387 d57b c1bf 4bd5 acff 2108 b9bf
00000110: 93db 0ab8 810e bc3f eab1 eaf8 f7cd 83bf
00000120: c2c5 2203 6216 bd3f 1892 1d93 3ffe ac3f
00000130: bdf4 39f9 4583 adbf cd8f ebeb 423e c43f
00000140: fa02 4ec6 0740 b63f d0d7 6226 a6d4 b0bf
00000150: 4f51 18b7 721f 68bf 8e3d 2b1a 68d9 a43f
00000160: ca36 af7c cf3e 8cbf ab2c 9e53 10d2 8b3f
00000170: a067 7450 66c3 7abf 4024 4c7e 43af bebf
00000180: f44c 9064 218f be3f 6768 fafb e19b 983f
00000190: 77c6 6ca3 c209 6b3f a94d ce71 95cc b33f
000001a0: 0e7b f15a d3b3 b1bf eecf c9f5 2b48 bbbf
000001b0: 0000 0000 6c40 6bbf d8ea 5238 30de a43f
000001c0: 648b f2f3 9a9c c5bf 9424 640a e1c0 af3f
000001d0: 6e62 e2f5 cbf0 723f ead7 aa53 60a6 b43f
000001e0: 64d9 675e 4c5a ccbf a1d8 fdd6 ffa1 c23f
000001f0: 4365 45ce 4721 b53f e048 0a36 649d b3bf
00000200: db5b b022 76c3 84bf 4705 8511 894d c13f
00000210: 4aaa a1ef 0296 b53f 1822 6728 8bd4 8fbf
00000220: 84f2 731e f8a0 a13f 247f b6ab 3576 b43f
00000230: e699 8420 7952 9bbf 6ac7 bd2b 3839 ac3f
00000240: cd16 257d d6c8 c33f 01bc c4e2 f986 b7bf
00000250: f449 919c d8d8 b63f 9a04 fe2f c2ff b03f
00000260: dfa4 056b 49ca 8d3f e76b 7425 58b4 c33f
00000270: 1bed ab06 b242 acbf b25f f08d b0a4 a8bf
00000280: 701a f281 f555 813f 5d2d 1248 adce 6d3f
00000290: a3e2 9af2 3a33 89bf 6cbe 3192 fd7f bcbf
000002a0: ec15 1e93 61f7 98bf 8a98 09ab dd99 a7bf
000002b0: a77e f63f 6156 653f 0af0 cbe8 2d0d c7bf
000002c0: 3c7d c981 27b4 c13f 1ea4 7878 5640 b03f
000002d0: 000d b90b 79bc aabf 1499 f6bb 5487 afbf
000002e0: 0027 6f85 1d43 be3f 2535 da95 2d5b c73f
000002f0: a2a7 64f8 a279 aebf f3de b3ba 2be0 a03f
00000300: eef8 7969 0b34 b53f 6458 4818 0931 ae3f
00000310: 6747 4d13 6ea3 e53e c2ea d8da 0375 bd3f
00000320: ba17 ae83 e683 c53f b71d c8ea 7c9c a63f
00000330: 4475 f98a 8f4f b2bf 0000 00c0 232e b3bf
00000340: 7a6b d8a2 43f8 b33f 5ba5 8609 5c75 bdbf
00000350: b880 6521 492b 85bf 0000 00c0 69af af3f
00000360: a46d d43e 4e18 ad3f 5702 812f 00ab af3f
00000370: f0fc 8c2a 61d6 a33f 0521 ec5d e419 a83f
00000380: ff62 7206 72da 74bf 18b7 2c5b ad18 bcbf
00000390: 12b0 93fa a56c 833f 5309 97c2 307f 84bf
000003a0: 2732 2eea 78ff 903f 0009 05b5 9461 a93f
000003b0: 309a 3b2a 566a 923f 35b1 c033 fd87 c03f
000003c0: d026 9dc1 adde bfbf 8ed7 cf8b a760 61bf
000003d0: 7606 1358 3d1a 7a3f 93de eb2f fb32 b3bf
000003e0: 7b95 0800 38a9 af3f 94c1 7747 b265 a73f
000003f0: 0000 0080 f3ac b1bf a12e 768e 4eb9 b93f
00000400: a280 85de 5181 a53f 356c d815 e90a bf3f
00000410: 2d0a 52f1 a1e5 cfbf 64a6 b273 d1a4 abbf
00000420: 0d84 b78c 4215 d63f d7e2 30db 0e6d abbf
00000430: 261c 7c3d a7df c4bf 8bb7 3713 6eb5 ce3f
00000440: 3f44 76c2 d107 ccbf 29d5 1884 ce54 d0bf
00000450: 0256 053d 90af c83f 4e0a 6f3c f72b 9f3f
00000460: 4bc5 a47c e5ad bb3f 8f70 6136 e3da 85bf
00000470: 0000 00c0 b150 aabf 3cd1 b93e 1f09 a6bf
00000480: e12b 1180 090e c63f 43ae c91d fa55 d43f
00000490: 7ecc 556c 0ace b6bf 13ec 086d 459b b8bf
000004a0: 9880 2ac4 beb9 bd3f ad85 53cc 6e7f c7bf
000004b0: 2975 fae5 6a24 d33f a007 50a7 c014 a33f
000004c0: f458 f061 18f7 c3bf 8396 334a 59dd b83f
000004d0: 256c 8911 bbf5 c33f 09a4 60cb 7e40 b5bf
000004e0: 4bcd 0b85 a7cb d1bf 4403 e8f5 30ee d33f
000004f0: ce34 3415 a9de b63f 10a4 f3a7 d9eb a9bf
00000500: 2852 fa70 350f cabf 91d4 7dc4 b88b 853f
00000510: 49b6 79fb 5d97 c63f 8fd5 3445 f532 b33f
00000520: 6ec7 4bc6 d005 c7bf c248 b03e ae3e 733f
00000530: 9546 fabc 5fcc b13f 1d40 eff6 3e5c c33f
00000540: 981f cdd4 310b ad3f 3289 c07a 818d 7abf
00000550: 78ce 5e55 0207 a2bf 57b8 ee4d 060e a93f
00000560: f977 d06b 32ec c33f 4790 c6d0 41cd bd3f
00000570: 78e5 cee8 4c15 a83f 0da4 7626 39ef 83bf
00000580: c83c 40c4 74c6 8e3f 62b1 29bc 2a3b ba3f
00000590: 1234 73a7 b6c2 6bbf 14a0 8bfe da81 d1bf
000005a0: 9be6 c839 2c0c b73f 453f b7e7 b226 ad3f
000005b0: 0000 0000 41b7 b5bf e1c9 1354 d582 b6bf
000005c0: 8648 7380 9bf0 babf 5e92 a378 abde b33f
000005d0: 08b0 fa5e 1afd c73f 1a22 ff99 6ea7 c03f
000005e0: 8b83 19dd a207 c1bf b9a5 1012 1689 afbf
000005f0: eac9 9b8d 93f3 c9bf 7852 f6bf f34e 523f
00000600: ce77 739d fc15 a63f b8e2 d9a5 d0d9 843f
00000610: ce42 1888 8eb7 c23f 112f d742 722f 96bf
00000620: 593f ce37 09ba b73f 6a8f 2d96 60eb b1bf
00000630: 025b b92f 9102 c63f fa42 5143 d8cb abbf
00000640: 4acc 31d5 297d b43f 4632 a8a2 5fde 90bf
00000650: a3fa e4d5 9b06 ce3f cff9 ae75 a490 c1bf
00000660: 0704 1dc2 e3f2 c3bf c20e ace4 6dc7 c73f
00000670: c25f 5255 d063 c33f 9f41 0685 341f b03f
00000680: 4ce3 56d3 49bd ac3f 2499 6e01 3a8d acbf
00000690: 4ee1 8176 f5cb 8a3f 33a0 5c07 84ed 983f
000006a0: 1959 c82b 6702 b53f a9b0 e112 8564 b33f
000006b0: e753 3436 433a bfbf 7668 c339 a69e a03f
000006c0: 9221 58b4 9fae b5bf 885b 99bb d86c aabf
000006d0: 0d49 f6c3 9192 b33f 53d8 4f08 1e2d a6bf
000006e0: c7cf 41da b88a c53f 7949 8ad9 a91d d33f
000006f0: 508f 2975 e9d8 b23f 5f41 7c0a 4814 cbbf
00000700: 3780 a7d0 7bc1 94bf b6c6 d560 292e c23f
00000710: 7bb8 5b50 1cab b23f 6dcc a919 4037 c33f
00000720: 391d fef2 d064 c23f e4a0 c70b 7cfc b33f
00000730: 9f9c e100 2c43 d1bf bf0a 0b67 20d3 84bf
00000740: e4d0 344d 70ae c2bf 3b44 7c46 24a4 c73f
00000750: 1c45 0702 7d63 d03f 3dd8 d4b0 4c01 b3bf
00000760: e429 0f9d 3292 a93f 19cb e125 7902 c53f
00000770: 931a d550 eceb cbbf 65b8 4746 cc6d 8a3f
00000780: 4d44 022e 9bfd cabf 8cca 94da 448d 94bf
00000790: 8f15 f762 806c cb3f b66a 40b0 0a7a d5bf
000007a0: 8521 67b9 2e2a a9bf 0ee3 917a 95ca c13f
000007b0: 270f bf16 b727 cd3f 6f99 5bd2 3e8d b0bf
000007c0: d773 6a48 3d35 c03f 6911 6802 a0e0 85bf
000007d0: 69a4 64d7 f3cf 8a3f d1c9 1987 1005 823f
000007e0: 279b 84ce ad07 cbbf bd47 cef0 e212 b43f
000007f0: 0000 0000 9b6b 8cbf db31 c3af d32d 783f

advantage_layer.0.bias f8 [128]
0.06349993350535835 -0.1359177214206158 0.0632118508219719 0.13712251153300642 0.13559569154333503 0.06799435807973848 0.0991552770039836 0.08974961635960155
0.0017339442048807355 -0.101208774846823 0.12407625635730066 0.13430698514735875 0.12695688633235397 -0.01597941666841507 -0.19534713447052948 0.08170514844149519
0.08243548807262553 0.17138687010754455 0.14380784404443445 -0.042716767923065155 0.0739685641381184 -0.05661110435700191 0.009568836593554423 -0.07458496776892078
0.010380938271175666 0.13249380526103519 0.15152675620258058 0.07908822280343662 0.12855037794996466 -0.1793532862102088 0.10271987265527428 -0.04999255691596486
0.0856177178950146 -7.76242617063136e-05 -0.016763750959848223 0.04912883026872 0.16136098949061659 0.09176000906094652 -0.15047385721424011 0.05138464720121751
0.1284298783669341 0.03263481706380844 0.09014678228624332 0.018145732581615448 0.050603069001355735 0.13228675161899436 -0.0047704992399114285 0.0776708727456952
0.06424407992706214 -0.031589359045028687 0.08055357770853432 0.14740586221540697 0.030318566220069718 0.0066496238747836235 0.09509943898205521 0.07427463692310848
0.1355983069588737 0.04757657686612144 -0.024470630678923144 0.11674010948182555 -0.003946233590975033 0.12118309822423959 0.12597711811187992 0.0751966808839328
-0.04588977721824723 0.03824404654288469 -0.0018729494403605166 0.0573219863037143 0.1305024600880844 0.11505280104898001 -0.11267920560342223 0.08558477229366768
-0.06550961989747417 0.041282303631305695 -0.04216409356930705 -0.008152557045618807 -0.06875313781353555 0.03875519285717871 0.023024429086096608 0.1363865431849894
0.15172374778361375 0.026680518863581585 0.15085151116080003 0.01556692809216976 -0.08022951039012553 0.16674597952091477 0.028187140247307032 0.15282881498881848
0.04013365660298936 0.07369816335810529 -0.043896726771440596 0.06586663971297912 0.18520584035204393 -0.031173525348377605 -0.014735391692964186 -0.06964549847012638
0.06688846710583522 0.03867046437965213 -0.07652489481884933 0.11133483802935304 0.05444996342460017 -0.040794294148381295 0.07226127497575685 0.014128372073173523
-0.17625294317535908 0.029098309238424547 0.043318383395671844 -0.013692608493043658 0.07724953442811966 0.0848309702629136 -0.08224529924500627 0.05179540209888081
-0.007296904921531677 0.0028285980224609375 -0.10822804114948847 0.16747633391080283 0.05722813114055116 -0.1287974399910961 -0.03334653120902664 -0.12198842083363456
-0.006279589908012817 0.14823208587533648 -0.031758414011296844 0.0003180474302646436 0.01706489269333232 -0.08429496163225852 0.029721967039827366 0.10756538650663229
00000000: f224 b419 8841 b03f a264 397c c065 c1bf
00000010: 0000 00e0 a62e b03f d231 4aff 3a8d c13f
00000020: c31c 541a 335b c13f 65d6 4308 1468 b13f
00000030: ee3a f57f 3d62 b93f 28d1 17b3 d4f9 b63f
00000040: 7298 cb69 b068 5c3f 880b 097a d1e8 b9bf
00000050: 96c4 4327 76c3 bf3f 9d87 6aa6 f830 c13f
00000060: 5e54 668d 1f40 c03f 0000 0080 e85c 90bf
00000070: d688 f588 2201 c9bf 8d96 78ec a0ea b43f
00000080: d53d 4dfd 7d1a b53f aab0 0945 01f0 c53f
00000090: 6b20 8aa1 4b68 c23f 86d6 70e2 f8de a5bf
000000a0: 8bc1 e793 9aef b23f 4287 9b73 21fc acbf
000000b0: 6f36 d781 d398 833f 013a 571d 0018 b3bf
000000c0: 6d0f 03f3 9942 853f 0966 4298 8ef5 c03f
000000d0: 4ff5 2d8f 3a65 c33f 7f84 7032 203f b43f
000000e0: 2a7e 97ba 5674 c03f 12fb 5969 0cf5 c6bf
000000f0: e124 b47d d94b ba3f b5b6 fed9 9f98 a9bf
00000100: c036 51f2 0aeb b53f afdd 5fa9 4659 14bf
00000110: 10fa 8548 842a 91bf 78fb 96fe 6927 a93f
00000120: db2f 5b16 7aa7 c43f 8157 ff7d 957d b73f
00000130: 68ae d133 ba42 c3bf f3cf 7da6 164f aa3f
00000140: 9426 b5e7 6370 c03f 0000 00c0 82b5 a03f
00000150: ea50 c209 dc13 b73f 0000 0080 cb94 923f
00000160: a648 e03c a5e8 a93f 63e6 f2b3 c5ee c03f
00000170: 5844 8923 3b8a 73bf e266 4b02 3de2 b33f
00000180: 5793 3fce 4c72 b03f 0000 0000 7b2c a0bf
00000190: b77d d5c5 289f b43f ec17 bafe 31de c23f
000001a0: 6cda 8189 d40b 9f3f 7b95 2ad1 a23c 7b3f
000001b0: 71be 4bd4 6f58 b83f 64cc 81a0 a903 b33f
000001c0: ae02 e40a 495b c13f 8928 6403 f55b a83f
000001d0: d3f3 e939 d40e 99bf 471c 5b08 aee2 bd3f
000001e0: 1828 7303 ed29 70bf fa78 b303 db05 bf3f
000001f0: 7bdc 2aa9 0420 c03f 9e0b 2af5 1640 b33f
00000200: aa06 bf68 dd7e a7bf 6d37 5642 b994 a33f
00000210: 9b6d fa25 b8af 5ebf 0d4d 08b1 4e59 ad3f
00000220: 6f1c 10fb 4db4 c03f 638d d1b1 1974 bd3f
00000230: 7e86 015f 8bd8 bcbf e872 0936 e2e8 b53f
00000240: 7875 080b 3dc5 b0bf 0000 0040 f422 a53f
00000250: 3f2d e435 8896 a5bf c91e 1eaf 49b2 80bf
00000260: 7111 683e ce99 b1bf b856 be7b b8d7 a33f
00000270: c644 bc47 b793 973f e308 4c3f 1d75 c13f
00000280: 10eb 600b af6b c33f 616b d64f 2352 9b3f
00000290: ba70 7e31 1a4f c33f 85bf 70b8 8de1 8f3f
000002a0: ebb7 4cd3 eb89 b4bf 8112 64a8 ee57 c53f
000002b0: f7aa 1ef6 16dd 9c3f 6bb7 2105 e58f c33f
000002c0: ca4f 280d 668c a43f cff8 6501 e2dd b23f
000002d0: 8b02 c5bb a179 a6bf f8f3 76d7 a2dc b03f
000002e0: 858c ab31 d3b4 c73f 863e 7ddf f3eb 9fbf
000002f0: e8fb 51cb 962d 8ebf da28 3e92 49d4 b1bf
00000300: 73fa b242 9a1f b13f acd9 a977 9dcc a33f
00000310: 04a9 93b0 2297 b3bf ced4 3da0 7080 bc3f
00000320: cfa6 5a98 dde0 ab3f 8d1e 765e fde2 a4bf
00000330: 78c3 c904 b77f b23f 0000 0000 56ef 8c3f
00000340: 6386 61d9 748f c6bf 1014 317a f2cb 9d3f
00000350: 0000 00c0 d32d a63f c17c 65cd de0a 8cbf
00000360: 0000 0020 a0c6 b33f f597 f782 7bb7 b53f
00000370: 13cd 8126 070e b5bf 141b 324c ed84 aa3f
00000380: 0000 0000 5ce3 7dbf 0000 0000 002c 673f
00000390: 3048 3f39 d5b4 bbbf a31c 8050 dd6f c53f
000003a0: 03da 516f 014d ad3f f2fe 483c 6f7c c0bf
000003b0: e0a3 f4e9 cb12 a1bf fe9c f815 a23a bfbf
000003c0: 0d66 9894 a0b8 79bf 26b6 86dc 44f9 c23f
000003d0: 4d4a 1a8b a342 a0bf e29f c24f f3d7 343f
000003e0: 3c46 1c90 7579 913f 9c99 6dc7 5a94 b5bf
000003f0: 2ca9 a271 6f6f 9e3f 0943 3ab9 6789 bb3f

advantage_layer.2.weight f8 [2, 128]
-0.1568485782385888 -0.1949383880471246 0.04047388583421707 -0.3497897658382614 -0.3156982179578237 -0.02768651767730429 -0.2476535275393539 -0.25914984883170716
0.3797522743102273 -0.18388924454656372 -0.3240013909193846 0.356351713122488 0.25011846478767236 -0.011089585721492767 -0.34637255521616017 -0.26723365305465907
-0.19503523654191554 -0.022427676761137612 0.19357237554565151 -0.1568963261863368 -0.1324246163471807 -0.22138522998678695 -0.1822660847970969 -0.17173147614931078
-0.13879400485385796 0.0033533197407992553 0.3115860698828285 -0.21635590496759705 0.19457791728593613 -0.40007481356820146 0.36059043360690785 -0.08844289975438305
-0.11317751604424302 0.33105267567373814 -0.17190550042448247 -0.1606889406129528 0.3112203383737579 -0.1628502823645063 -0.32759490934096686 -0.13548870745505748
-0.11203593862202264 -0.024786867201328278 -0.19405076665659401 -0.011323332786560059 -0.19080516466629965 0.2860163246923218 -0.11802471742131071 -0.2556336089798056
-0.2507715099576822 0.00661633163690567 0.17863008825698115 -0.2642405508931362 -0.14298248530011615 -0.1771335025715437 0.36244324841935005 0.28149107271254253
0.22853245619670867 0.41297643065331435 -0.1477603399559631 0.38169209058386105 -0.029168984572248105 -0.2509360395465178 0.3233844546941366 0.007944064234413083
0.2289896774469944 0.23746525956730744 -0.22788604603506143 -0.02850353873327856 -0.08100236736581609 -0.15977254797825594 -0.3826271031038946 -0.3013922859851114
-0.15006337164387568 0.023795053362846375 0.5125675837006641 0.2940920285937801 -0.24669705076594683 0.3659402316356585 -0.24570440270718594 -0.26335521007010465
0.3173706896596452 -0.18782421660718188 -0.024600895303026386 -0.22134343539288615 0.007831879767459237 0.3298305916331621 -0.2130634637317669 0.11267429882078113
0.4379192762732472 0.3103562000775633 -0.21694345003412718 -0.20677133432854228 0.29941357115090567 0.12813556953770872 -0.17559668733112677 -0.12184542510611016
-0.28697510471262994 0.17917421715751894 -0.1909331042703964 0.33522191639912524 -0.22426451175873344 0.4467677750726345 0.32755200119167444 -0.07544919848442078
-0.1852556959271943 -0.14198889778250856 -0.06094812601804733 -0.1762628961061261 0.03642512112855911 -0.19647321637299098 -0.14219118925411453 0.20429878032424645
0.07431279867887497 0.029822170734405518 -0.4108859522325367 0.3239240067320643 -0.20203983585449758 -0.29607397690029685 -0.11735004238444044 -0.26627871748884663
0.05641878818191761 -0.2487506186143905 0.06549897313306231 -0.31147311866218325 -0.24193721142693803 0.044734955158865886 -0.10133552980687509 -0.15339032714606804
0.249842617500225 -0.1539868172068068 0.00011605024337768555 0.22157453159086204 -0.09493729487355264 -0.279165725728421 -0.1961133846489821 -0.08760292373860486
0.20625819842832452 -0.1391445887317632 -0.00915152136719527 0.3061673442711659 0.23395526699223998 -0.03335881978273392 -0.21664852626482192 -0.18922553804400535
-0.14930089089460866 -0.30704041925639647 0.325058600910076 -0.12714416122350805 -0.13421211647703457 -0.05210596291200082 -0.23281036891162607 -0.21183893051393377
-0.11414359684402181 -0.28678743955237057 0.2078330232230358 -0.23894804138329487 0.31351818277722154 -0.19640658963412466 0.21970763158895118 -0.2367199887263458
-0.1902463948642899 0.3765910757183723 -0.12255879774412913 -0.16291613970183885 0.24399711495367438 -0.23896374916154903 -0.1848953524066541 -0.24518906766844414
-0.1846598924639567 -0.034324634820222855 -0.20996556590247795 0.038237206637859344 -0.11403360352924231 0.21458683253333613 -0.13732169028756291 -0.12408880460705952
-0.1863914272071579 -0.008661597967147827 0.2947905246232771 -0.13120809605436548 -0.11838540155685441 -0.18407453060560025 0.2619619219581387 0.3174341844004606
0.22319247025767286 0.19393122931810913 -0.15877049961290057 0.034400107382245304 0.03144474275577424 -0.04917974958333429 0.23181853156353996 0.016127861826291848
-0.1886107542548636 0.26306592800191475 -0.17188106332139397 -0.2589367860512649 -0.2189449012412939 -0.16352487698652352 0.10531686306916509 -0.12270823541701507
-0.12338212047036906 0.04725886136293411 0.162770771023489 -0.165048386330854 -0.36574430770492844 0.2501116527234951 -0.00014558413044659703 -0.03710818093003823
0.25267075860389643 -0.142440923164538 -0.2892869743362481 -0.1907267996034303 0.04011161081358343 0.22306100620278035 -0.1621377113985362 0.3033259719012777
0.18197772378034466 0.25282924353345076 -0.21947214488484407 -0.26464219798711475 0.2715836117327549 0.4467932711828314 -0.15950372749486744 -0.22237683751447213
-0.18199832883233025 0.2697451017678467 -0.10118032103089729 0.23615115285056307 -0.13624597147929013 0.5004834602902172 0.3192668318781569 -0.04597855359315872
-0.47349774577540626 -0.19817543117482495 -0.04295624792575836 -0.2093328529392196 -0.011394008994102478 -0.0866988013886028 -0.22820108424159008 0.29973912989792306
-0.03468671813607216 0.0598006471991539 -0.10536856602273037 0.1930206692528958 -0.16932135066212942 -0.38546346239336715 -0.4845301135478143 -0.4435058552827713
0.032270415144666574 -0.13393345760086994 -0.033178438297711894 -0.01791778610213878 -0.1067083748578906 -0.14800745919861516 -0.20782691695563252 -0.21147992089861745
00000000: 25bb fa3c 9d13 c4bf 9cdc b2b8 bdf3 c8bf
00000010: 0000 0040 feb8 a43f 9c0d 309d f462 d6bf
00000020: 8232 624c 6634 d4bf 9049 dbbf da59 9cbf
00000030: b9a1 c25c 1cb3 cfbf b3b6 5f3f e995 d0bf
00000040: 789e af7b dc4d d83f 13f2 b4c9 ae89 c7bf
00000050: 7cdd 7654 70bc d4bf ab04 6f6a 77ce d63f
00000060: c7e1 98e0 f001 d03f 0000 0000 23b6 86bf
00000070: c6a9 38cb f72a d6bf eca9 102e 5b1a d1bf
00000080: 7bf0 4125 eaf6 c8bf 527d dbe8 47f7 96bf
00000090: 4f55 30c7 fac6 c83f 529b eac6 2d15 c4bf
000000a0: 1fc0 3232 4af3 c0bf 0a2b 4ee9 5956 ccbf
000000b0: a7ce afbc 7e54 c7bf eaa6 e008 4cfb c5bf
000000c0: 2c35 dd7f 00c4 c1bf 4f1b d5d3 6b78 6b3f
000000d0: 7f4c 02b3 06f1 d33f a4ef 10e0 8cb1 cbbf
000000e0: 6929 a2df ede7 c83f 63a3 0e64 d39a d9bf
000000f0: 6fe5 e5e5 e913 d73f da2b 02a2 31a4 b6bf
00000100: 3373 0da2 33f9 bcbf 7368 d18f f72f d53f
00000110: 6faf 29db ff00 c6bf 7079 6188 7491 c4bf
00000120: ff94 cab5 08eb d33f 9530 732e 47d8 c4bf
00000130: 8727 7da3 50f7 d4bf 9896 bfa7 b157 c1bf
00000140: 4fb6 5b24 63ae bcbf 0000 0080 ba61 99bf
00000150: dfe2 46d0 a7d6 c8bf 0000 0000 b030 87bf
00000160: ca27 13bb 4d6c c8bf ad3d 2b6a 174e d23f
00000170: 30b5 712d de36 bebf eee8 9411 4d5c d0bf
00000180: a95a 82f2 a30c d0bf 0000 0000 ba19 7b3f
00000190: 199a 92c9 59dd c63f 1b3c 1733 51e9 d0bf
000001a0: f4e4 2105 404d c2bf 180d 4984 4fac c6bf
000001b0: c47e a72a 4532 d73f 1fa5 da21 f303 d23f
000001c0: cb3e b830 8d40 cd3f e02f ebb1 346e da3f
000001d0: aadb e091 cfe9 c2bf 79c5 8ca9 a46d d83f
000001e0: 146c 2e6b 79de 9dbf 165d cf08 560f d0bf
000001f0: 138d 3cb6 54b2 d43f 064b ac40 fa44 803f
00000200: b0d2 e0a3 884f cd3f df8c e3f9 4265 ce3f
00000210: 33b9 77b5 5e2b cdbf 7503 b81a 0830 9dbf
00000220: 1619 bc36 92bc b4bf e1be 2e46 6d73 c4bf
00000230: a03e 9963 f67c d8bf a7a7 e4de 024a d3bf
00000240: 36db c4cc 4635 c3bf 0000 0000 bb5d 983f
00000250: b57d 1f22 f466 e03f f5c5 345f 67d2 d23f
00000260: 349a 87da c493 cfbf c29c ca93 906b d73f
00000270: 6727 0eeb 3d73 cfbf 28de 9ecf cfda d0bf
00000280: 5e04 3327 cd4f d43f ddc1 dcb9 9f0a c8bf
00000290: 8e82 1d23 fa30 99bf 9c2e 1950 fb54 ccbf
000002a0: f951 bd1b 290a 803f 8c39 12c5 f11b d53f
000002b0: 65a7 59e0 a945 cbbf ddf4 880c 39d8 bc3f
000002c0: e66b 7892 de06 dc3f f569 5c40 e0dc d33f
000002d0: a82e 7d8f cdc4 cbbf da7e 58ab 7b77 cabf
000002e0: e196 048a 9729 d33f 9a34 4f10 bf66 c03f
000002f0: a0c2 afc6 f379 c6bf 567a ff03 4331 bfbf
00000300: 6571 60d4 cc5d d2bf 552d 7d45 2eef c63f
00000310: 8a55 48f7 7e70 c8bf 508c f59f 4674 d53f
00000320: 111e d413 b3b4 ccbf 59fe b5dd d797 dc3f
00000330: d5e2 36ab 9cf6 d43f 0000 0080 a350 b3bf
00000340: b1d7 b369 75b6 c7bf a87b 2f34 b12c c2bf
00000350: 0000 00c0 9734 afbf 5014 2357 c88f c6bf
00000360: 0000 0040 50a6 a23f a853 6ecb 0826 c9bf
00000370: 2f19 d025 5233 c2bf 597b 0d62 7626 ca3f
00000380: 0000 00e0 2906 b33f 0000 0000 b489 9e3f
00000390: 3f5f ce97 f44b dabf 8b6c d3c1 2bbb d43f
000003a0: bcfc bdfb 70dc c9bf 97f0 fe43 e0f2 d2bf
000003b0: deb2 3902 a70a bebf 1d11 cfe3 b50a d1bf
000003c0: 6319 3e64 ece2 ac3f 6b7f e76d 0fd7 cfbf
000003d0: 9930 876b 8ac4 b03f 5b2e 8ff2 2cef d3bf
000003e0: 38cf 616d ccf7 cebf 086c ca02 80e7 a63f
000003f0: 2780 7112 20f1 b9bf b4bb 4e53 4ba2 c3bf
00000400: 95be a7c7 d7fa cf3f fe8c f50b d7b5 c3bf
00000410: 0000 0000 006c 1e3f 3496 67e3 8d5c cc3f
00000420: e911 a780 cf4d b8bf 2cbb 8aeb d9dd d1bf
00000430: 1408 b04e 3e1a c9bf 2dc5 7d2c 256d b6bf
00000440: 4109 642c ab66 ca3f 6d57 0269 7dcf c1bf
00000450: e092 d867 08be 82bf 74dc afea 3e98 d33f
00000460: 07b4 3a06 3ff2 cd3f 0000 0040 6814 a1bf
00000470: 595a 848f 23bb cbbf e1c6 bbdc 8a38 c8bf
00000480: 15f8 d3a5 4a1c c3bf 1068 d0db 8ca6 d3bf
00000490: 844e 0c97 c2cd d43f 6989 2a87 4246 c0bf
000004a0: 9476 7fd5 dc2d c1bf 796b 44fd a1ad aabf
000004b0: 9793 52ec bacc cdbf e4d9 49bf 891d cbbf
000004c0: 8c2d 7ec7 8338 bdbf 0bfc 71b4 b95a d2bf
000004d0: 9dc8 e2c2 459a ca3f e59d 9773 d995 cebf
000004e0: 68b0 6e91 ae10 d43f 4e46 99e3 d923 c9bf
000004f0: b696 2d32 611f cc3f 78cf f130 d74c cebf
00000500: 22e0 0f6e fe59 c8bf 6f41 8b74 111a d83f
00000510: bfea 256c 0360 bfbf 8946 01a2 6fda c4bf
00000520: 60ae 8526 4c3b cf3f 0709 ca37 5d96 cebf
00000530: c06d e2a1 a6aa c7bf 6381 7cf9 5a62 cfbf
00000540: 3afe 8173 efa2 c7bf 0000 00a0 ff92 a1bf
00000550: d82b 6bd3 26e0 cabf 0000 00c0 d393 a33f
00000560: a999 cd65 4e31 bdbf 1d03 f1d1 9477 cb3f
00000570: d883 68d4 c193 c1bf 3949 96ad 48c4 bfbf
00000580: 5a04 0e9e acdb c7bf 0000 0000 2cbd 81bf
00000590: bf5e 9b13 d9dd d23f 0510 c348 6dcb c0bf
000005a0: 41b1 0274 814e bebf 2222 7d14 c18f c7bf
000005b0: 72e1 e6ef fbc3 d03f 6f79 2878 d750 d43f
000005c0: 202e 3c24 9291 cc3f d413 cc0f bdd2 c83f
000005d0: 3418 b47b 9752 c4bf 200b 5f10 e49c a13f
000005e0: 3fcc 887b 8619 a03f d4f9 2b90 162e a9bf
000005f0: f108 d6c9 3aac cd3f b4b0 647c d283 903f
00000600: 7f69 99ae 6524 c8bf 8472 5d79 12d6 d03f
00000610: 1430 e2dc 3200 c6bf fa93 f498 6b92 d0bf
00000620: 0a89 3af3 6206 ccbf 4ca9 5e17 62ee c4bf
00000630: 9770 99c2 0bf6 ba3f 03e2 1092 ce69 bfbf
00000640: 7cd4 547c f895 bfbf 0000 0040 5032 a83f
00000650: 0b32 2531 acd5 c43f 3e38 c636 4e20 c5bf
00000660: ef9c 12d0 5a68 d7bf 5ef0 324e d401 d03f
00000670: 44cb 7d28 fe14 23bf a462 04ef d7ff a2bf
00000680: e2fd 36f9 c12b d03f 5647 4d11 813b c2bf
00000690: e5b5 7b83 ad83 d2bf c03c 625b bc69 c8bf
000006a0: 96b8 4451 8289 a43f 8caf 5357 438d cc3f
000006b0: 05d7 f3b3 edc0 c4bf 4ffa 5556 b169 d33f
000006c0: 5a59 1eca 0b4b c73f b5b5 1cb5 5a2e d03f
000006d0: 9ae9 54ca a917 ccbf fcc1 5fd4 e5ef d0bf
000006e0: 4264 a13a a061 d13f 5266 f3cd 4298 dc3f
000006f0: 511c 973e 9e6a c4bf b09b 411e d876 ccbf
00000700: 3c79 21a3 b84b c7bf 8c57 96f5 8043 d13f
00000710: 8394 d319 f4e6 b9bf 67f3 3373 333a ce3f
00000720: f28e db0b 8270 c1bf 2d55 c4e3 f503 e03f
00000730: 494f 6726 de6e d43f 0000 0040 808a a7bf
00000740: 2672 357d c94d debf 081f e201 d05d c9bf
00000750: 0000 0080 5cfe a5bf 0219 ad3e 6bcb cabf
00000760: 0000 0000 be55 87bf c302 9184 e431 b6bf
00000770: 025c dd70 b135 cdbf 8c8e 0f08 ed2e d33f
00000780: 0000 0020 75c2 a1bf 0000 00c0 309e ae3f
00000790: 4013 1831 6ff9 babf 0a55 f2ba e6b4 c83f
000007a0: d9df cd6f 52ac c5bf 7613 32f1 6eab d8bf
000007b0: a25c e797 8a02 dfbf 6889 0162 6662 dcbf
000007c0: 7370 5973 bf85 a03f 4033 1e46 bb24 c1bf
000007d0: c990 d7a6 c3fc a0bf 1e38 4d45 0a59 92bf
000007e0: b554 3974 3d51 bbbf c93a 698e e8f1 c2bf
000007f0: 0dc7 c689 129a cabf dc96 0228 c611 cbbf

advantage_layer.2.bias f8 [2]
0.017194030876509045 -0.01616662561451578
00000000: bc3e 34e1 4f9b 913f e53e 34e1 fb8d 90bf
